<?xml version="1.0"?>
<net name="main_graph" version="11">
	<layers>
		<layer id="0" name="image" type="Parameter" version="opset1">
			<data shape="1,3,800,992" element_type="f32" />
			<output>
				<port id="0" precision="FP32" names="image">
					<dim>1</dim>
					<dim>3</dim>
					<dim>800</dim>
					<dim>992</dim>
				</port>
			</output>
		</layer>
		<layer id="1" name="/Constant_29_compressed" type="Const" version="opset1">
			<data element_type="f16" shape="1, 1, 4" offset="0" size="8" />
			<output>
				<port id="0" precision="FP16" names="/Constant_29_output_0">
					<dim>1</dim>
					<dim>1</dim>
					<dim>4</dim>
				</port>
			</output>
		</layer>
		<layer id="2" name="/Constant_29" type="Convert" version="opset1">
			<data destination_type="f32" />
			<rt_info>
				<attribute name="decompression" version="0" />
			</rt_info>
			<input>
				<port id="0" precision="FP16">
					<dim>1</dim>
					<dim>1</dim>
					<dim>4</dim>
				</port>
			</input>
			<output>
				<port id="1" precision="FP32">
					<dim>1</dim>
					<dim>1</dim>
					<dim>4</dim>
				</port>
			</output>
		</layer>
		<layer id="3" name="/Constant_11" type="Const" version="opset1">
			<data element_type="i64" shape="" offset="8" size="8" />
			<output>
				<port id="0" precision="I64" names="/Constant_11_output_0" />
			</output>
		</layer>
		<layer id="4" name="onnx::Conv_2489_compressed" type="Const" version="opset1">
			<data element_type="f16" shape="32, 3, 3, 3" offset="16" size="1728" />
			<output>
				<port id="0" precision="FP16" names="onnx::Conv_2489">
					<dim>32</dim>
					<dim>3</dim>
					<dim>3</dim>
					<dim>3</dim>
				</port>
			</output>
		</layer>
		<layer id="5" name="onnx::Conv_2489" type="Convert" version="opset1">
			<data destination_type="f32" />
			<rt_info>
				<attribute name="decompression" version="0" />
			</rt_info>
			<input>
				<port id="0" precision="FP16">
					<dim>32</dim>
					<dim>3</dim>
					<dim>3</dim>
					<dim>3</dim>
				</port>
			</input>
			<output>
				<port id="1" precision="FP32">
					<dim>32</dim>
					<dim>3</dim>
					<dim>3</dim>
					<dim>3</dim>
				</port>
			</output>
		</layer>
		<layer id="6" name="/backbone/init_block/conv/Conv/WithoutBiases" type="Convolution" version="opset1">
			<data strides="2, 2" dilations="1, 1" pads_begin="1, 1" pads_end="1, 1" auto_pad="explicit" />
			<input>
				<port id="0" precision="FP32">
					<dim>1</dim>
					<dim>3</dim>
					<dim>800</dim>
					<dim>992</dim>
				</port>
				<port id="1" precision="FP32">
					<dim>32</dim>
					<dim>3</dim>
					<dim>3</dim>
					<dim>3</dim>
				</port>
			</input>
			<output>
				<port id="2" precision="FP32">
					<dim>1</dim>
					<dim>32</dim>
					<dim>400</dim>
					<dim>496</dim>
				</port>
			</output>
		</layer>
		<layer id="7" name="Reshape_62772_compressed" type="Const" version="opset1">
			<data element_type="f16" shape="1, 32, 1, 1" offset="1744" size="64" />
			<output>
				<port id="0" precision="FP16">
					<dim>1</dim>
					<dim>32</dim>
					<dim>1</dim>
					<dim>1</dim>
				</port>
			</output>
		</layer>
		<layer id="8" name="Reshape_62772" type="Convert" version="opset1">
			<data destination_type="f32" />
			<rt_info>
				<attribute name="decompression" version="0" />
			</rt_info>
			<input>
				<port id="0" precision="FP16">
					<dim>1</dim>
					<dim>32</dim>
					<dim>1</dim>
					<dim>1</dim>
				</port>
			</input>
			<output>
				<port id="1" precision="FP32">
					<dim>1</dim>
					<dim>32</dim>
					<dim>1</dim>
					<dim>1</dim>
				</port>
			</output>
		</layer>
		<layer id="9" name="/backbone/init_block/conv/Conv" type="Add" version="opset1">
			<data auto_broadcast="numpy" />
			<input>
				<port id="0" precision="FP32">
					<dim>1</dim>
					<dim>32</dim>
					<dim>400</dim>
					<dim>496</dim>
				</port>
				<port id="1" precision="FP32">
					<dim>1</dim>
					<dim>32</dim>
					<dim>1</dim>
					<dim>1</dim>
				</port>
			</input>
			<output>
				<port id="2" precision="FP32" names="/backbone/init_block/conv/Conv_output_0">
					<dim>1</dim>
					<dim>32</dim>
					<dim>400</dim>
					<dim>496</dim>
				</port>
			</output>
		</layer>
		<layer id="10" name="/backbone/init_block/activ/Clip" type="Clamp" version="opset1">
			<data min="0" max="6" />
			<input>
				<port id="0" precision="FP32">
					<dim>1</dim>
					<dim>32</dim>
					<dim>400</dim>
					<dim>496</dim>
				</port>
			</input>
			<output>
				<port id="1" precision="FP32" names="/backbone/init_block/activ/Clip_output_0">
					<dim>1</dim>
					<dim>32</dim>
					<dim>400</dim>
					<dim>496</dim>
				</port>
			</output>
		</layer>
		<layer id="11" name="onnx::Conv_2492_compressed" type="Const" version="opset1">
			<data element_type="f16" shape="32, 32, 1, 1" offset="1808" size="2048" />
			<output>
				<port id="0" precision="FP16" names="onnx::Conv_2492">
					<dim>32</dim>
					<dim>32</dim>
					<dim>1</dim>
					<dim>1</dim>
				</port>
			</output>
		</layer>
		<layer id="12" name="onnx::Conv_2492" type="Convert" version="opset1">
			<data destination_type="f32" />
			<rt_info>
				<attribute name="decompression" version="0" />
			</rt_info>
			<input>
				<port id="0" precision="FP16">
					<dim>32</dim>
					<dim>32</dim>
					<dim>1</dim>
					<dim>1</dim>
				</port>
			</input>
			<output>
				<port id="1" precision="FP32">
					<dim>32</dim>
					<dim>32</dim>
					<dim>1</dim>
					<dim>1</dim>
				</port>
			</output>
		</layer>
		<layer id="13" name="/backbone/stage1/unit1/conv1/conv/Conv/WithoutBiases" type="Convolution" version="opset1">
			<data strides="1, 1" dilations="1, 1" pads_begin="0, 0" pads_end="0, 0" auto_pad="explicit" />
			<input>
				<port id="0" precision="FP32">
					<dim>1</dim>
					<dim>32</dim>
					<dim>400</dim>
					<dim>496</dim>
				</port>
				<port id="1" precision="FP32">
					<dim>32</dim>
					<dim>32</dim>
					<dim>1</dim>
					<dim>1</dim>
				</port>
			</input>
			<output>
				<port id="2" precision="FP32">
					<dim>1</dim>
					<dim>32</dim>
					<dim>400</dim>
					<dim>496</dim>
				</port>
			</output>
		</layer>
		<layer id="14" name="Reshape_62789_compressed" type="Const" version="opset1">
			<data element_type="f16" shape="1, 32, 1, 1" offset="3856" size="64" />
			<output>
				<port id="0" precision="FP16">
					<dim>1</dim>
					<dim>32</dim>
					<dim>1</dim>
					<dim>1</dim>
				</port>
			</output>
		</layer>
		<layer id="15" name="Reshape_62789" type="Convert" version="opset1">
			<data destination_type="f32" />
			<rt_info>
				<attribute name="decompression" version="0" />
			</rt_info>
			<input>
				<port id="0" precision="FP16">
					<dim>1</dim>
					<dim>32</dim>
					<dim>1</dim>
					<dim>1</dim>
				</port>
			</input>
			<output>
				<port id="1" precision="FP32">
					<dim>1</dim>
					<dim>32</dim>
					<dim>1</dim>
					<dim>1</dim>
				</port>
			</output>
		</layer>
		<layer id="16" name="/backbone/stage1/unit1/conv1/conv/Conv" type="Add" version="opset1">
			<data auto_broadcast="numpy" />
			<input>
				<port id="0" precision="FP32">
					<dim>1</dim>
					<dim>32</dim>
					<dim>400</dim>
					<dim>496</dim>
				</port>
				<port id="1" precision="FP32">
					<dim>1</dim>
					<dim>32</dim>
					<dim>1</dim>
					<dim>1</dim>
				</port>
			</input>
			<output>
				<port id="2" precision="FP32" names="/backbone/stage1/unit1/conv1/conv/Conv_output_0">
					<dim>1</dim>
					<dim>32</dim>
					<dim>400</dim>
					<dim>496</dim>
				</port>
			</output>
		</layer>
		<layer id="17" name="/backbone/stage1/unit1/conv1/activ/Clip" type="Clamp" version="opset1">
			<data min="0" max="6" />
			<input>
				<port id="0" precision="FP32">
					<dim>1</dim>
					<dim>32</dim>
					<dim>400</dim>
					<dim>496</dim>
				</port>
			</input>
			<output>
				<port id="1" precision="FP32" names="/backbone/stage1/unit1/conv1/activ/Clip_output_0">
					<dim>1</dim>
					<dim>32</dim>
					<dim>400</dim>
					<dim>496</dim>
				</port>
			</output>
		</layer>
		<layer id="18" name="Reshape_62802_compressed" type="Const" version="opset1">
			<data element_type="f16" shape="32, 1, 1, 3, 3" offset="3920" size="576" />
			<output>
				<port id="0" precision="FP16">
					<dim>32</dim>
					<dim>1</dim>
					<dim>1</dim>
					<dim>3</dim>
					<dim>3</dim>
				</port>
			</output>
		</layer>
		<layer id="19" name="Reshape_62802" type="Convert" version="opset1">
			<data destination_type="f32" />
			<rt_info>
				<attribute name="decompression" version="0" />
			</rt_info>
			<input>
				<port id="0" precision="FP16">
					<dim>32</dim>
					<dim>1</dim>
					<dim>1</dim>
					<dim>3</dim>
					<dim>3</dim>
				</port>
			</input>
			<output>
				<port id="1" precision="FP32">
					<dim>32</dim>
					<dim>1</dim>
					<dim>1</dim>
					<dim>3</dim>
					<dim>3</dim>
				</port>
			</output>
		</layer>
		<layer id="20" name="/backbone/stage1/unit1/conv2/conv/Conv/WithoutBiases" type="GroupConvolution" version="opset1">
			<data strides="1, 1" pads_begin="1, 1" pads_end="1, 1" dilations="1, 1" auto_pad="explicit" />
			<input>
				<port id="0" precision="FP32">
					<dim>1</dim>
					<dim>32</dim>
					<dim>400</dim>
					<dim>496</dim>
				</port>
				<port id="1" precision="FP32">
					<dim>32</dim>
					<dim>1</dim>
					<dim>1</dim>
					<dim>3</dim>
					<dim>3</dim>
				</port>
			</input>
			<output>
				<port id="2" precision="FP32">
					<dim>1</dim>
					<dim>32</dim>
					<dim>400</dim>
					<dim>496</dim>
				</port>
			</output>
		</layer>
		<layer id="21" name="Reshape_62852_compressed" type="Const" version="opset1">
			<data element_type="f16" shape="1, 32, 1, 1" offset="4496" size="64" />
			<output>
				<port id="0" precision="FP16">
					<dim>1</dim>
					<dim>32</dim>
					<dim>1</dim>
					<dim>1</dim>
				</port>
			</output>
		</layer>
		<layer id="22" name="Reshape_62852" type="Convert" version="opset1">
			<data destination_type="f32" />
			<rt_info>
				<attribute name="decompression" version="0" />
			</rt_info>
			<input>
				<port id="0" precision="FP16">
					<dim>1</dim>
					<dim>32</dim>
					<dim>1</dim>
					<dim>1</dim>
				</port>
			</input>
			<output>
				<port id="1" precision="FP32">
					<dim>1</dim>
					<dim>32</dim>
					<dim>1</dim>
					<dim>1</dim>
				</port>
			</output>
		</layer>
		<layer id="23" name="/backbone/stage1/unit1/conv2/conv/Conv" type="Add" version="opset1">
			<data auto_broadcast="numpy" />
			<input>
				<port id="0" precision="FP32">
					<dim>1</dim>
					<dim>32</dim>
					<dim>400</dim>
					<dim>496</dim>
				</port>
				<port id="1" precision="FP32">
					<dim>1</dim>
					<dim>32</dim>
					<dim>1</dim>
					<dim>1</dim>
				</port>
			</input>
			<output>
				<port id="2" precision="FP32" names="/backbone/stage1/unit1/conv2/conv/Conv_output_0">
					<dim>1</dim>
					<dim>32</dim>
					<dim>400</dim>
					<dim>496</dim>
				</port>
			</output>
		</layer>
		<layer id="24" name="/backbone/stage1/unit1/conv2/activ/Clip" type="Clamp" version="opset1">
			<data min="0" max="6" />
			<input>
				<port id="0" precision="FP32">
					<dim>1</dim>
					<dim>32</dim>
					<dim>400</dim>
					<dim>496</dim>
				</port>
			</input>
			<output>
				<port id="1" precision="FP32" names="/backbone/stage1/unit1/conv2/activ/Clip_output_0">
					<dim>1</dim>
					<dim>32</dim>
					<dim>400</dim>
					<dim>496</dim>
				</port>
			</output>
		</layer>
		<layer id="25" name="onnx::Conv_2498_compressed" type="Const" version="opset1">
			<data element_type="f16" shape="16, 32, 1, 1" offset="4560" size="1024" />
			<output>
				<port id="0" precision="FP16" names="onnx::Conv_2498">
					<dim>16</dim>
					<dim>32</dim>
					<dim>1</dim>
					<dim>1</dim>
				</port>
			</output>
		</layer>
		<layer id="26" name="onnx::Conv_2498" type="Convert" version="opset1">
			<data destination_type="f32" />
			<rt_info>
				<attribute name="decompression" version="0" />
			</rt_info>
			<input>
				<port id="0" precision="FP16">
					<dim>16</dim>
					<dim>32</dim>
					<dim>1</dim>
					<dim>1</dim>
				</port>
			</input>
			<output>
				<port id="1" precision="FP32">
					<dim>16</dim>
					<dim>32</dim>
					<dim>1</dim>
					<dim>1</dim>
				</port>
			</output>
		</layer>
		<layer id="27" name="/backbone/stage1/unit1/conv3/conv/Conv/WithoutBiases" type="Convolution" version="opset1">
			<data strides="1, 1" dilations="1, 1" pads_begin="0, 0" pads_end="0, 0" auto_pad="explicit" />
			<input>
				<port id="0" precision="FP32">
					<dim>1</dim>
					<dim>32</dim>
					<dim>400</dim>
					<dim>496</dim>
				</port>
				<port id="1" precision="FP32">
					<dim>16</dim>
					<dim>32</dim>
					<dim>1</dim>
					<dim>1</dim>
				</port>
			</input>
			<output>
				<port id="2" precision="FP32">
					<dim>1</dim>
					<dim>16</dim>
					<dim>400</dim>
					<dim>496</dim>
				</port>
			</output>
		</layer>
		<layer id="28" name="Reshape_62869_compressed" type="Const" version="opset1">
			<data element_type="f16" shape="1, 16, 1, 1" offset="5584" size="32" />
			<output>
				<port id="0" precision="FP16">
					<dim>1</dim>
					<dim>16</dim>
					<dim>1</dim>
					<dim>1</dim>
				</port>
			</output>
		</layer>
		<layer id="29" name="Reshape_62869" type="Convert" version="opset1">
			<data destination_type="f32" />
			<rt_info>
				<attribute name="decompression" version="0" />
			</rt_info>
			<input>
				<port id="0" precision="FP16">
					<dim>1</dim>
					<dim>16</dim>
					<dim>1</dim>
					<dim>1</dim>
				</port>
			</input>
			<output>
				<port id="1" precision="FP32">
					<dim>1</dim>
					<dim>16</dim>
					<dim>1</dim>
					<dim>1</dim>
				</port>
			</output>
		</layer>
		<layer id="30" name="/backbone/stage1/unit1/conv3/conv/Conv" type="Add" version="opset1">
			<data auto_broadcast="numpy" />
			<input>
				<port id="0" precision="FP32">
					<dim>1</dim>
					<dim>16</dim>
					<dim>400</dim>
					<dim>496</dim>
				</port>
				<port id="1" precision="FP32">
					<dim>1</dim>
					<dim>16</dim>
					<dim>1</dim>
					<dim>1</dim>
				</port>
			</input>
			<output>
				<port id="2" precision="FP32" names="/backbone/stage1/unit1/conv3/conv/Conv_output_0">
					<dim>1</dim>
					<dim>16</dim>
					<dim>400</dim>
					<dim>496</dim>
				</port>
			</output>
		</layer>
		<layer id="31" name="onnx::Conv_2501_compressed" type="Const" version="opset1">
			<data element_type="f16" shape="96, 16, 1, 1" offset="5616" size="3072" />
			<output>
				<port id="0" precision="FP16" names="onnx::Conv_2501">
					<dim>96</dim>
					<dim>16</dim>
					<dim>1</dim>
					<dim>1</dim>
				</port>
			</output>
		</layer>
		<layer id="32" name="onnx::Conv_2501" type="Convert" version="opset1">
			<data destination_type="f32" />
			<rt_info>
				<attribute name="decompression" version="0" />
			</rt_info>
			<input>
				<port id="0" precision="FP16">
					<dim>96</dim>
					<dim>16</dim>
					<dim>1</dim>
					<dim>1</dim>
				</port>
			</input>
			<output>
				<port id="1" precision="FP32">
					<dim>96</dim>
					<dim>16</dim>
					<dim>1</dim>
					<dim>1</dim>
				</port>
			</output>
		</layer>
		<layer id="33" name="/backbone/stage2/unit1/conv1/conv/Conv/WithoutBiases" type="Convolution" version="opset1">
			<data strides="1, 1" dilations="1, 1" pads_begin="0, 0" pads_end="0, 0" auto_pad="explicit" />
			<input>
				<port id="0" precision="FP32">
					<dim>1</dim>
					<dim>16</dim>
					<dim>400</dim>
					<dim>496</dim>
				</port>
				<port id="1" precision="FP32">
					<dim>96</dim>
					<dim>16</dim>
					<dim>1</dim>
					<dim>1</dim>
				</port>
			</input>
			<output>
				<port id="2" precision="FP32">
					<dim>1</dim>
					<dim>96</dim>
					<dim>400</dim>
					<dim>496</dim>
				</port>
			</output>
		</layer>
		<layer id="34" name="Reshape_62882_compressed" type="Const" version="opset1">
			<data element_type="f16" shape="1, 96, 1, 1" offset="8688" size="192" />
			<output>
				<port id="0" precision="FP16">
					<dim>1</dim>
					<dim>96</dim>
					<dim>1</dim>
					<dim>1</dim>
				</port>
			</output>
		</layer>
		<layer id="35" name="Reshape_62882" type="Convert" version="opset1">
			<data destination_type="f32" />
			<rt_info>
				<attribute name="decompression" version="0" />
			</rt_info>
			<input>
				<port id="0" precision="FP16">
					<dim>1</dim>
					<dim>96</dim>
					<dim>1</dim>
					<dim>1</dim>
				</port>
			</input>
			<output>
				<port id="1" precision="FP32">
					<dim>1</dim>
					<dim>96</dim>
					<dim>1</dim>
					<dim>1</dim>
				</port>
			</output>
		</layer>
		<layer id="36" name="/backbone/stage2/unit1/conv1/conv/Conv" type="Add" version="opset1">
			<data auto_broadcast="numpy" />
			<input>
				<port id="0" precision="FP32">
					<dim>1</dim>
					<dim>96</dim>
					<dim>400</dim>
					<dim>496</dim>
				</port>
				<port id="1" precision="FP32">
					<dim>1</dim>
					<dim>96</dim>
					<dim>1</dim>
					<dim>1</dim>
				</port>
			</input>
			<output>
				<port id="2" precision="FP32" names="/backbone/stage2/unit1/conv1/conv/Conv_output_0">
					<dim>1</dim>
					<dim>96</dim>
					<dim>400</dim>
					<dim>496</dim>
				</port>
			</output>
		</layer>
		<layer id="37" name="/backbone/stage2/unit1/conv1/activ/Clip" type="Clamp" version="opset1">
			<data min="0" max="6" />
			<input>
				<port id="0" precision="FP32">
					<dim>1</dim>
					<dim>96</dim>
					<dim>400</dim>
					<dim>496</dim>
				</port>
			</input>
			<output>
				<port id="1" precision="FP32" names="/backbone/stage2/unit1/conv1/activ/Clip_output_0">
					<dim>1</dim>
					<dim>96</dim>
					<dim>400</dim>
					<dim>496</dim>
				</port>
			</output>
		</layer>
		<layer id="38" name="Reshape_62895_compressed" type="Const" version="opset1">
			<data element_type="f16" shape="96, 1, 1, 3, 3" offset="8880" size="1728" />
			<output>
				<port id="0" precision="FP16">
					<dim>96</dim>
					<dim>1</dim>
					<dim>1</dim>
					<dim>3</dim>
					<dim>3</dim>
				</port>
			</output>
		</layer>
		<layer id="39" name="Reshape_62895" type="Convert" version="opset1">
			<data destination_type="f32" />
			<rt_info>
				<attribute name="decompression" version="0" />
			</rt_info>
			<input>
				<port id="0" precision="FP16">
					<dim>96</dim>
					<dim>1</dim>
					<dim>1</dim>
					<dim>3</dim>
					<dim>3</dim>
				</port>
			</input>
			<output>
				<port id="1" precision="FP32">
					<dim>96</dim>
					<dim>1</dim>
					<dim>1</dim>
					<dim>3</dim>
					<dim>3</dim>
				</port>
			</output>
		</layer>
		<layer id="40" name="/backbone/stage2/unit1/conv2/conv/Conv/WithoutBiases" type="GroupConvolution" version="opset1">
			<data strides="2, 2" pads_begin="1, 1" pads_end="1, 1" dilations="1, 1" auto_pad="explicit" />
			<input>
				<port id="0" precision="FP32">
					<dim>1</dim>
					<dim>96</dim>
					<dim>400</dim>
					<dim>496</dim>
				</port>
				<port id="1" precision="FP32">
					<dim>96</dim>
					<dim>1</dim>
					<dim>1</dim>
					<dim>3</dim>
					<dim>3</dim>
				</port>
			</input>
			<output>
				<port id="2" precision="FP32">
					<dim>1</dim>
					<dim>96</dim>
					<dim>200</dim>
					<dim>248</dim>
				</port>
			</output>
		</layer>
		<layer id="41" name="Reshape_62945_compressed" type="Const" version="opset1">
			<data element_type="f16" shape="1, 96, 1, 1" offset="10608" size="192" />
			<output>
				<port id="0" precision="FP16">
					<dim>1</dim>
					<dim>96</dim>
					<dim>1</dim>
					<dim>1</dim>
				</port>
			</output>
		</layer>
		<layer id="42" name="Reshape_62945" type="Convert" version="opset1">
			<data destination_type="f32" />
			<rt_info>
				<attribute name="decompression" version="0" />
			</rt_info>
			<input>
				<port id="0" precision="FP16">
					<dim>1</dim>
					<dim>96</dim>
					<dim>1</dim>
					<dim>1</dim>
				</port>
			</input>
			<output>
				<port id="1" precision="FP32">
					<dim>1</dim>
					<dim>96</dim>
					<dim>1</dim>
					<dim>1</dim>
				</port>
			</output>
		</layer>
		<layer id="43" name="/backbone/stage2/unit1/conv2/conv/Conv" type="Add" version="opset1">
			<data auto_broadcast="numpy" />
			<input>
				<port id="0" precision="FP32">
					<dim>1</dim>
					<dim>96</dim>
					<dim>200</dim>
					<dim>248</dim>
				</port>
				<port id="1" precision="FP32">
					<dim>1</dim>
					<dim>96</dim>
					<dim>1</dim>
					<dim>1</dim>
				</port>
			</input>
			<output>
				<port id="2" precision="FP32" names="/backbone/stage2/unit1/conv2/conv/Conv_output_0">
					<dim>1</dim>
					<dim>96</dim>
					<dim>200</dim>
					<dim>248</dim>
				</port>
			</output>
		</layer>
		<layer id="44" name="/backbone/stage2/unit1/conv2/activ/Clip" type="Clamp" version="opset1">
			<data min="0" max="6" />
			<input>
				<port id="0" precision="FP32">
					<dim>1</dim>
					<dim>96</dim>
					<dim>200</dim>
					<dim>248</dim>
				</port>
			</input>
			<output>
				<port id="1" precision="FP32" names="/backbone/stage2/unit1/conv2/activ/Clip_output_0">
					<dim>1</dim>
					<dim>96</dim>
					<dim>200</dim>
					<dim>248</dim>
				</port>
			</output>
		</layer>
		<layer id="45" name="onnx::Conv_2507_compressed" type="Const" version="opset1">
			<data element_type="f16" shape="24, 96, 1, 1" offset="10800" size="4608" />
			<output>
				<port id="0" precision="FP16" names="onnx::Conv_2507">
					<dim>24</dim>
					<dim>96</dim>
					<dim>1</dim>
					<dim>1</dim>
				</port>
			</output>
		</layer>
		<layer id="46" name="onnx::Conv_2507" type="Convert" version="opset1">
			<data destination_type="f32" />
			<rt_info>
				<attribute name="decompression" version="0" />
			</rt_info>
			<input>
				<port id="0" precision="FP16">
					<dim>24</dim>
					<dim>96</dim>
					<dim>1</dim>
					<dim>1</dim>
				</port>
			</input>
			<output>
				<port id="1" precision="FP32">
					<dim>24</dim>
					<dim>96</dim>
					<dim>1</dim>
					<dim>1</dim>
				</port>
			</output>
		</layer>
		<layer id="47" name="/backbone/stage2/unit1/conv3/conv/Conv/WithoutBiases" type="Convolution" version="opset1">
			<data strides="1, 1" dilations="1, 1" pads_begin="0, 0" pads_end="0, 0" auto_pad="explicit" />
			<input>
				<port id="0" precision="FP32">
					<dim>1</dim>
					<dim>96</dim>
					<dim>200</dim>
					<dim>248</dim>
				</port>
				<port id="1" precision="FP32">
					<dim>24</dim>
					<dim>96</dim>
					<dim>1</dim>
					<dim>1</dim>
				</port>
			</input>
			<output>
				<port id="2" precision="FP32">
					<dim>1</dim>
					<dim>24</dim>
					<dim>200</dim>
					<dim>248</dim>
				</port>
			</output>
		</layer>
		<layer id="48" name="Reshape_62962_compressed" type="Const" version="opset1">
			<data element_type="f16" shape="1, 24, 1, 1" offset="15408" size="48" />
			<output>
				<port id="0" precision="FP16">
					<dim>1</dim>
					<dim>24</dim>
					<dim>1</dim>
					<dim>1</dim>
				</port>
			</output>
		</layer>
		<layer id="49" name="Reshape_62962" type="Convert" version="opset1">
			<data destination_type="f32" />
			<rt_info>
				<attribute name="decompression" version="0" />
			</rt_info>
			<input>
				<port id="0" precision="FP16">
					<dim>1</dim>
					<dim>24</dim>
					<dim>1</dim>
					<dim>1</dim>
				</port>
			</input>
			<output>
				<port id="1" precision="FP32">
					<dim>1</dim>
					<dim>24</dim>
					<dim>1</dim>
					<dim>1</dim>
				</port>
			</output>
		</layer>
		<layer id="50" name="/backbone/stage2/unit1/conv3/conv/Conv" type="Add" version="opset1">
			<data auto_broadcast="numpy" />
			<input>
				<port id="0" precision="FP32">
					<dim>1</dim>
					<dim>24</dim>
					<dim>200</dim>
					<dim>248</dim>
				</port>
				<port id="1" precision="FP32">
					<dim>1</dim>
					<dim>24</dim>
					<dim>1</dim>
					<dim>1</dim>
				</port>
			</input>
			<output>
				<port id="2" precision="FP32" names="/backbone/stage2/unit1/conv3/conv/Conv_output_0">
					<dim>1</dim>
					<dim>24</dim>
					<dim>200</dim>
					<dim>248</dim>
				</port>
			</output>
		</layer>
		<layer id="51" name="onnx::Conv_2510_compressed" type="Const" version="opset1">
			<data element_type="f16" shape="144, 24, 1, 1" offset="15456" size="6912" />
			<output>
				<port id="0" precision="FP16" names="onnx::Conv_2510">
					<dim>144</dim>
					<dim>24</dim>
					<dim>1</dim>
					<dim>1</dim>
				</port>
			</output>
		</layer>
		<layer id="52" name="onnx::Conv_2510" type="Convert" version="opset1">
			<data destination_type="f32" />
			<rt_info>
				<attribute name="decompression" version="0" />
			</rt_info>
			<input>
				<port id="0" precision="FP16">
					<dim>144</dim>
					<dim>24</dim>
					<dim>1</dim>
					<dim>1</dim>
				</port>
			</input>
			<output>
				<port id="1" precision="FP32">
					<dim>144</dim>
					<dim>24</dim>
					<dim>1</dim>
					<dim>1</dim>
				</port>
			</output>
		</layer>
		<layer id="53" name="/backbone/stage2/unit2/conv1/conv/Conv/WithoutBiases" type="Convolution" version="opset1">
			<data strides="1, 1" dilations="1, 1" pads_begin="0, 0" pads_end="0, 0" auto_pad="explicit" />
			<input>
				<port id="0" precision="FP32">
					<dim>1</dim>
					<dim>24</dim>
					<dim>200</dim>
					<dim>248</dim>
				</port>
				<port id="1" precision="FP32">
					<dim>144</dim>
					<dim>24</dim>
					<dim>1</dim>
					<dim>1</dim>
				</port>
			</input>
			<output>
				<port id="2" precision="FP32">
					<dim>1</dim>
					<dim>144</dim>
					<dim>200</dim>
					<dim>248</dim>
				</port>
			</output>
		</layer>
		<layer id="54" name="Reshape_62975_compressed" type="Const" version="opset1">
			<data element_type="f16" shape="1, 144, 1, 1" offset="22368" size="288" />
			<output>
				<port id="0" precision="FP16">
					<dim>1</dim>
					<dim>144</dim>
					<dim>1</dim>
					<dim>1</dim>
				</port>
			</output>
		</layer>
		<layer id="55" name="Reshape_62975" type="Convert" version="opset1">
			<data destination_type="f32" />
			<rt_info>
				<attribute name="decompression" version="0" />
			</rt_info>
			<input>
				<port id="0" precision="FP16">
					<dim>1</dim>
					<dim>144</dim>
					<dim>1</dim>
					<dim>1</dim>
				</port>
			</input>
			<output>
				<port id="1" precision="FP32">
					<dim>1</dim>
					<dim>144</dim>
					<dim>1</dim>
					<dim>1</dim>
				</port>
			</output>
		</layer>
		<layer id="56" name="/backbone/stage2/unit2/conv1/conv/Conv" type="Add" version="opset1">
			<data auto_broadcast="numpy" />
			<input>
				<port id="0" precision="FP32">
					<dim>1</dim>
					<dim>144</dim>
					<dim>200</dim>
					<dim>248</dim>
				</port>
				<port id="1" precision="FP32">
					<dim>1</dim>
					<dim>144</dim>
					<dim>1</dim>
					<dim>1</dim>
				</port>
			</input>
			<output>
				<port id="2" precision="FP32" names="/backbone/stage2/unit2/conv1/conv/Conv_output_0">
					<dim>1</dim>
					<dim>144</dim>
					<dim>200</dim>
					<dim>248</dim>
				</port>
			</output>
		</layer>
		<layer id="57" name="/backbone/stage2/unit2/conv1/activ/Clip" type="Clamp" version="opset1">
			<data min="0" max="6" />
			<input>
				<port id="0" precision="FP32">
					<dim>1</dim>
					<dim>144</dim>
					<dim>200</dim>
					<dim>248</dim>
				</port>
			</input>
			<output>
				<port id="1" precision="FP32" names="/backbone/stage2/unit2/conv1/activ/Clip_output_0">
					<dim>1</dim>
					<dim>144</dim>
					<dim>200</dim>
					<dim>248</dim>
				</port>
			</output>
		</layer>
		<layer id="58" name="Reshape_62988_compressed" type="Const" version="opset1">
			<data element_type="f16" shape="144, 1, 1, 3, 3" offset="22656" size="2592" />
			<output>
				<port id="0" precision="FP16">
					<dim>144</dim>
					<dim>1</dim>
					<dim>1</dim>
					<dim>3</dim>
					<dim>3</dim>
				</port>
			</output>
		</layer>
		<layer id="59" name="Reshape_62988" type="Convert" version="opset1">
			<data destination_type="f32" />
			<rt_info>
				<attribute name="decompression" version="0" />
			</rt_info>
			<input>
				<port id="0" precision="FP16">
					<dim>144</dim>
					<dim>1</dim>
					<dim>1</dim>
					<dim>3</dim>
					<dim>3</dim>
				</port>
			</input>
			<output>
				<port id="1" precision="FP32">
					<dim>144</dim>
					<dim>1</dim>
					<dim>1</dim>
					<dim>3</dim>
					<dim>3</dim>
				</port>
			</output>
		</layer>
		<layer id="60" name="/backbone/stage2/unit2/conv2/conv/Conv/WithoutBiases" type="GroupConvolution" version="opset1">
			<data strides="1, 1" pads_begin="1, 1" pads_end="1, 1" dilations="1, 1" auto_pad="explicit" />
			<input>
				<port id="0" precision="FP32">
					<dim>1</dim>
					<dim>144</dim>
					<dim>200</dim>
					<dim>248</dim>
				</port>
				<port id="1" precision="FP32">
					<dim>144</dim>
					<dim>1</dim>
					<dim>1</dim>
					<dim>3</dim>
					<dim>3</dim>
				</port>
			</input>
			<output>
				<port id="2" precision="FP32">
					<dim>1</dim>
					<dim>144</dim>
					<dim>200</dim>
					<dim>248</dim>
				</port>
			</output>
		</layer>
		<layer id="61" name="Reshape_63038_compressed" type="Const" version="opset1">
			<data element_type="f16" shape="1, 144, 1, 1" offset="25248" size="288" />
			<output>
				<port id="0" precision="FP16">
					<dim>1</dim>
					<dim>144</dim>
					<dim>1</dim>
					<dim>1</dim>
				</port>
			</output>
		</layer>
		<layer id="62" name="Reshape_63038" type="Convert" version="opset1">
			<data destination_type="f32" />
			<rt_info>
				<attribute name="decompression" version="0" />
			</rt_info>
			<input>
				<port id="0" precision="FP16">
					<dim>1</dim>
					<dim>144</dim>
					<dim>1</dim>
					<dim>1</dim>
				</port>
			</input>
			<output>
				<port id="1" precision="FP32">
					<dim>1</dim>
					<dim>144</dim>
					<dim>1</dim>
					<dim>1</dim>
				</port>
			</output>
		</layer>
		<layer id="63" name="/backbone/stage2/unit2/conv2/conv/Conv" type="Add" version="opset1">
			<data auto_broadcast="numpy" />
			<input>
				<port id="0" precision="FP32">
					<dim>1</dim>
					<dim>144</dim>
					<dim>200</dim>
					<dim>248</dim>
				</port>
				<port id="1" precision="FP32">
					<dim>1</dim>
					<dim>144</dim>
					<dim>1</dim>
					<dim>1</dim>
				</port>
			</input>
			<output>
				<port id="2" precision="FP32" names="/backbone/stage2/unit2/conv2/conv/Conv_output_0">
					<dim>1</dim>
					<dim>144</dim>
					<dim>200</dim>
					<dim>248</dim>
				</port>
			</output>
		</layer>
		<layer id="64" name="/backbone/stage2/unit2/conv2/activ/Clip" type="Clamp" version="opset1">
			<data min="0" max="6" />
			<input>
				<port id="0" precision="FP32">
					<dim>1</dim>
					<dim>144</dim>
					<dim>200</dim>
					<dim>248</dim>
				</port>
			</input>
			<output>
				<port id="1" precision="FP32" names="/backbone/stage2/unit2/conv2/activ/Clip_output_0">
					<dim>1</dim>
					<dim>144</dim>
					<dim>200</dim>
					<dim>248</dim>
				</port>
			</output>
		</layer>
		<layer id="65" name="onnx::Conv_2516_compressed" type="Const" version="opset1">
			<data element_type="f16" shape="24, 144, 1, 1" offset="25536" size="6912" />
			<output>
				<port id="0" precision="FP16" names="onnx::Conv_2516">
					<dim>24</dim>
					<dim>144</dim>
					<dim>1</dim>
					<dim>1</dim>
				</port>
			</output>
		</layer>
		<layer id="66" name="onnx::Conv_2516" type="Convert" version="opset1">
			<data destination_type="f32" />
			<rt_info>
				<attribute name="decompression" version="0" />
			</rt_info>
			<input>
				<port id="0" precision="FP16">
					<dim>24</dim>
					<dim>144</dim>
					<dim>1</dim>
					<dim>1</dim>
				</port>
			</input>
			<output>
				<port id="1" precision="FP32">
					<dim>24</dim>
					<dim>144</dim>
					<dim>1</dim>
					<dim>1</dim>
				</port>
			</output>
		</layer>
		<layer id="67" name="/backbone/stage2/unit2/conv3/conv/Conv/WithoutBiases" type="Convolution" version="opset1">
			<data strides="1, 1" dilations="1, 1" pads_begin="0, 0" pads_end="0, 0" auto_pad="explicit" />
			<input>
				<port id="0" precision="FP32">
					<dim>1</dim>
					<dim>144</dim>
					<dim>200</dim>
					<dim>248</dim>
				</port>
				<port id="1" precision="FP32">
					<dim>24</dim>
					<dim>144</dim>
					<dim>1</dim>
					<dim>1</dim>
				</port>
			</input>
			<output>
				<port id="2" precision="FP32">
					<dim>1</dim>
					<dim>24</dim>
					<dim>200</dim>
					<dim>248</dim>
				</port>
			</output>
		</layer>
		<layer id="68" name="Reshape_63055_compressed" type="Const" version="opset1">
			<data element_type="f16" shape="1, 24, 1, 1" offset="32448" size="48" />
			<output>
				<port id="0" precision="FP16">
					<dim>1</dim>
					<dim>24</dim>
					<dim>1</dim>
					<dim>1</dim>
				</port>
			</output>
		</layer>
		<layer id="69" name="Reshape_63055" type="Convert" version="opset1">
			<data destination_type="f32" />
			<rt_info>
				<attribute name="decompression" version="0" />
			</rt_info>
			<input>
				<port id="0" precision="FP16">
					<dim>1</dim>
					<dim>24</dim>
					<dim>1</dim>
					<dim>1</dim>
				</port>
			</input>
			<output>
				<port id="1" precision="FP32">
					<dim>1</dim>
					<dim>24</dim>
					<dim>1</dim>
					<dim>1</dim>
				</port>
			</output>
		</layer>
		<layer id="70" name="/backbone/stage2/unit2/conv3/conv/Conv" type="Add" version="opset1">
			<data auto_broadcast="numpy" />
			<input>
				<port id="0" precision="FP32">
					<dim>1</dim>
					<dim>24</dim>
					<dim>200</dim>
					<dim>248</dim>
				</port>
				<port id="1" precision="FP32">
					<dim>1</dim>
					<dim>24</dim>
					<dim>1</dim>
					<dim>1</dim>
				</port>
			</input>
			<output>
				<port id="2" precision="FP32" names="/backbone/stage2/unit2/conv3/conv/Conv_output_0">
					<dim>1</dim>
					<dim>24</dim>
					<dim>200</dim>
					<dim>248</dim>
				</port>
			</output>
		</layer>
		<layer id="71" name="/backbone/stage2/unit2/Add" type="Add" version="opset1">
			<data auto_broadcast="numpy" />
			<input>
				<port id="0" precision="FP32">
					<dim>1</dim>
					<dim>24</dim>
					<dim>200</dim>
					<dim>248</dim>
				</port>
				<port id="1" precision="FP32">
					<dim>1</dim>
					<dim>24</dim>
					<dim>200</dim>
					<dim>248</dim>
				</port>
			</input>
			<output>
				<port id="2" precision="FP32" names="/backbone/stage2/unit2/Add_output_0">
					<dim>1</dim>
					<dim>24</dim>
					<dim>200</dim>
					<dim>248</dim>
				</port>
			</output>
		</layer>
		<layer id="72" name="onnx::Conv_2519_compressed" type="Const" version="opset1">
			<data element_type="f16" shape="144, 24, 1, 1" offset="32496" size="6912" />
			<output>
				<port id="0" precision="FP16" names="onnx::Conv_2519">
					<dim>144</dim>
					<dim>24</dim>
					<dim>1</dim>
					<dim>1</dim>
				</port>
			</output>
		</layer>
		<layer id="73" name="onnx::Conv_2519" type="Convert" version="opset1">
			<data destination_type="f32" />
			<rt_info>
				<attribute name="decompression" version="0" />
			</rt_info>
			<input>
				<port id="0" precision="FP16">
					<dim>144</dim>
					<dim>24</dim>
					<dim>1</dim>
					<dim>1</dim>
				</port>
			</input>
			<output>
				<port id="1" precision="FP32">
					<dim>144</dim>
					<dim>24</dim>
					<dim>1</dim>
					<dim>1</dim>
				</port>
			</output>
		</layer>
		<layer id="74" name="/backbone/stage3/unit1/conv1/conv/Conv/WithoutBiases" type="Convolution" version="opset1">
			<data strides="1, 1" dilations="1, 1" pads_begin="0, 0" pads_end="0, 0" auto_pad="explicit" />
			<input>
				<port id="0" precision="FP32">
					<dim>1</dim>
					<dim>24</dim>
					<dim>200</dim>
					<dim>248</dim>
				</port>
				<port id="1" precision="FP32">
					<dim>144</dim>
					<dim>24</dim>
					<dim>1</dim>
					<dim>1</dim>
				</port>
			</input>
			<output>
				<port id="2" precision="FP32">
					<dim>1</dim>
					<dim>144</dim>
					<dim>200</dim>
					<dim>248</dim>
				</port>
			</output>
		</layer>
		<layer id="75" name="Reshape_63069_compressed" type="Const" version="opset1">
			<data element_type="f16" shape="1, 144, 1, 1" offset="39408" size="288" />
			<output>
				<port id="0" precision="FP16">
					<dim>1</dim>
					<dim>144</dim>
					<dim>1</dim>
					<dim>1</dim>
				</port>
			</output>
		</layer>
		<layer id="76" name="Reshape_63069" type="Convert" version="opset1">
			<data destination_type="f32" />
			<rt_info>
				<attribute name="decompression" version="0" />
			</rt_info>
			<input>
				<port id="0" precision="FP16">
					<dim>1</dim>
					<dim>144</dim>
					<dim>1</dim>
					<dim>1</dim>
				</port>
			</input>
			<output>
				<port id="1" precision="FP32">
					<dim>1</dim>
					<dim>144</dim>
					<dim>1</dim>
					<dim>1</dim>
				</port>
			</output>
		</layer>
		<layer id="77" name="/backbone/stage3/unit1/conv1/conv/Conv" type="Add" version="opset1">
			<data auto_broadcast="numpy" />
			<input>
				<port id="0" precision="FP32">
					<dim>1</dim>
					<dim>144</dim>
					<dim>200</dim>
					<dim>248</dim>
				</port>
				<port id="1" precision="FP32">
					<dim>1</dim>
					<dim>144</dim>
					<dim>1</dim>
					<dim>1</dim>
				</port>
			</input>
			<output>
				<port id="2" precision="FP32" names="/backbone/stage3/unit1/conv1/conv/Conv_output_0">
					<dim>1</dim>
					<dim>144</dim>
					<dim>200</dim>
					<dim>248</dim>
				</port>
			</output>
		</layer>
		<layer id="78" name="/backbone/stage3/unit1/conv1/activ/Clip" type="Clamp" version="opset1">
			<data min="0" max="6" />
			<input>
				<port id="0" precision="FP32">
					<dim>1</dim>
					<dim>144</dim>
					<dim>200</dim>
					<dim>248</dim>
				</port>
			</input>
			<output>
				<port id="1" precision="FP32" names="/backbone/stage3/unit1/conv1/activ/Clip_output_0">
					<dim>1</dim>
					<dim>144</dim>
					<dim>200</dim>
					<dim>248</dim>
				</port>
			</output>
		</layer>
		<layer id="79" name="Reshape_63082_compressed" type="Const" version="opset1">
			<data element_type="f16" shape="144, 1, 1, 3, 3" offset="39696" size="2592" />
			<output>
				<port id="0" precision="FP16">
					<dim>144</dim>
					<dim>1</dim>
					<dim>1</dim>
					<dim>3</dim>
					<dim>3</dim>
				</port>
			</output>
		</layer>
		<layer id="80" name="Reshape_63082" type="Convert" version="opset1">
			<data destination_type="f32" />
			<rt_info>
				<attribute name="decompression" version="0" />
			</rt_info>
			<input>
				<port id="0" precision="FP16">
					<dim>144</dim>
					<dim>1</dim>
					<dim>1</dim>
					<dim>3</dim>
					<dim>3</dim>
				</port>
			</input>
			<output>
				<port id="1" precision="FP32">
					<dim>144</dim>
					<dim>1</dim>
					<dim>1</dim>
					<dim>3</dim>
					<dim>3</dim>
				</port>
			</output>
		</layer>
		<layer id="81" name="/backbone/stage3/unit1/conv2/conv/Conv/WithoutBiases" type="GroupConvolution" version="opset1">
			<data strides="2, 2" pads_begin="1, 1" pads_end="1, 1" dilations="1, 1" auto_pad="explicit" />
			<input>
				<port id="0" precision="FP32">
					<dim>1</dim>
					<dim>144</dim>
					<dim>200</dim>
					<dim>248</dim>
				</port>
				<port id="1" precision="FP32">
					<dim>144</dim>
					<dim>1</dim>
					<dim>1</dim>
					<dim>3</dim>
					<dim>3</dim>
				</port>
			</input>
			<output>
				<port id="2" precision="FP32">
					<dim>1</dim>
					<dim>144</dim>
					<dim>100</dim>
					<dim>124</dim>
				</port>
			</output>
		</layer>
		<layer id="82" name="Reshape_63132_compressed" type="Const" version="opset1">
			<data element_type="f16" shape="1, 144, 1, 1" offset="42288" size="288" />
			<output>
				<port id="0" precision="FP16">
					<dim>1</dim>
					<dim>144</dim>
					<dim>1</dim>
					<dim>1</dim>
				</port>
			</output>
		</layer>
		<layer id="83" name="Reshape_63132" type="Convert" version="opset1">
			<data destination_type="f32" />
			<rt_info>
				<attribute name="decompression" version="0" />
			</rt_info>
			<input>
				<port id="0" precision="FP16">
					<dim>1</dim>
					<dim>144</dim>
					<dim>1</dim>
					<dim>1</dim>
				</port>
			</input>
			<output>
				<port id="1" precision="FP32">
					<dim>1</dim>
					<dim>144</dim>
					<dim>1</dim>
					<dim>1</dim>
				</port>
			</output>
		</layer>
		<layer id="84" name="/backbone/stage3/unit1/conv2/conv/Conv" type="Add" version="opset1">
			<data auto_broadcast="numpy" />
			<input>
				<port id="0" precision="FP32">
					<dim>1</dim>
					<dim>144</dim>
					<dim>100</dim>
					<dim>124</dim>
				</port>
				<port id="1" precision="FP32">
					<dim>1</dim>
					<dim>144</dim>
					<dim>1</dim>
					<dim>1</dim>
				</port>
			</input>
			<output>
				<port id="2" precision="FP32" names="/backbone/stage3/unit1/conv2/conv/Conv_output_0">
					<dim>1</dim>
					<dim>144</dim>
					<dim>100</dim>
					<dim>124</dim>
				</port>
			</output>
		</layer>
		<layer id="85" name="/backbone/stage3/unit1/conv2/activ/Clip" type="Clamp" version="opset1">
			<data min="0" max="6" />
			<input>
				<port id="0" precision="FP32">
					<dim>1</dim>
					<dim>144</dim>
					<dim>100</dim>
					<dim>124</dim>
				</port>
			</input>
			<output>
				<port id="1" precision="FP32" names="/backbone/stage3/unit1/conv2/activ/Clip_output_0">
					<dim>1</dim>
					<dim>144</dim>
					<dim>100</dim>
					<dim>124</dim>
				</port>
			</output>
		</layer>
		<layer id="86" name="onnx::Conv_2525_compressed" type="Const" version="opset1">
			<data element_type="f16" shape="32, 144, 1, 1" offset="42576" size="9216" />
			<output>
				<port id="0" precision="FP16" names="onnx::Conv_2525">
					<dim>32</dim>
					<dim>144</dim>
					<dim>1</dim>
					<dim>1</dim>
				</port>
			</output>
		</layer>
		<layer id="87" name="onnx::Conv_2525" type="Convert" version="opset1">
			<data destination_type="f32" />
			<rt_info>
				<attribute name="decompression" version="0" />
			</rt_info>
			<input>
				<port id="0" precision="FP16">
					<dim>32</dim>
					<dim>144</dim>
					<dim>1</dim>
					<dim>1</dim>
				</port>
			</input>
			<output>
				<port id="1" precision="FP32">
					<dim>32</dim>
					<dim>144</dim>
					<dim>1</dim>
					<dim>1</dim>
				</port>
			</output>
		</layer>
		<layer id="88" name="/backbone/stage3/unit1/conv3/conv/Conv/WithoutBiases" type="Convolution" version="opset1">
			<data strides="1, 1" dilations="1, 1" pads_begin="0, 0" pads_end="0, 0" auto_pad="explicit" />
			<input>
				<port id="0" precision="FP32">
					<dim>1</dim>
					<dim>144</dim>
					<dim>100</dim>
					<dim>124</dim>
				</port>
				<port id="1" precision="FP32">
					<dim>32</dim>
					<dim>144</dim>
					<dim>1</dim>
					<dim>1</dim>
				</port>
			</input>
			<output>
				<port id="2" precision="FP32">
					<dim>1</dim>
					<dim>32</dim>
					<dim>100</dim>
					<dim>124</dim>
				</port>
			</output>
		</layer>
		<layer id="89" name="Reshape_63149_compressed" type="Const" version="opset1">
			<data element_type="f16" shape="1, 32, 1, 1" offset="51792" size="64" />
			<output>
				<port id="0" precision="FP16">
					<dim>1</dim>
					<dim>32</dim>
					<dim>1</dim>
					<dim>1</dim>
				</port>
			</output>
		</layer>
		<layer id="90" name="Reshape_63149" type="Convert" version="opset1">
			<data destination_type="f32" />
			<rt_info>
				<attribute name="decompression" version="0" />
			</rt_info>
			<input>
				<port id="0" precision="FP16">
					<dim>1</dim>
					<dim>32</dim>
					<dim>1</dim>
					<dim>1</dim>
				</port>
			</input>
			<output>
				<port id="1" precision="FP32">
					<dim>1</dim>
					<dim>32</dim>
					<dim>1</dim>
					<dim>1</dim>
				</port>
			</output>
		</layer>
		<layer id="91" name="/backbone/stage3/unit1/conv3/conv/Conv" type="Add" version="opset1">
			<data auto_broadcast="numpy" />
			<input>
				<port id="0" precision="FP32">
					<dim>1</dim>
					<dim>32</dim>
					<dim>100</dim>
					<dim>124</dim>
				</port>
				<port id="1" precision="FP32">
					<dim>1</dim>
					<dim>32</dim>
					<dim>1</dim>
					<dim>1</dim>
				</port>
			</input>
			<output>
				<port id="2" precision="FP32" names="/backbone/stage3/unit1/conv3/conv/Conv_output_0">
					<dim>1</dim>
					<dim>32</dim>
					<dim>100</dim>
					<dim>124</dim>
				</port>
			</output>
		</layer>
		<layer id="92" name="onnx::Conv_2528_compressed" type="Const" version="opset1">
			<data element_type="f16" shape="192, 32, 1, 1" offset="51856" size="12288" />
			<output>
				<port id="0" precision="FP16" names="onnx::Conv_2528">
					<dim>192</dim>
					<dim>32</dim>
					<dim>1</dim>
					<dim>1</dim>
				</port>
			</output>
		</layer>
		<layer id="93" name="onnx::Conv_2528" type="Convert" version="opset1">
			<data destination_type="f32" />
			<rt_info>
				<attribute name="decompression" version="0" />
			</rt_info>
			<input>
				<port id="0" precision="FP16">
					<dim>192</dim>
					<dim>32</dim>
					<dim>1</dim>
					<dim>1</dim>
				</port>
			</input>
			<output>
				<port id="1" precision="FP32">
					<dim>192</dim>
					<dim>32</dim>
					<dim>1</dim>
					<dim>1</dim>
				</port>
			</output>
		</layer>
		<layer id="94" name="/backbone/stage3/unit2/conv1/conv/Conv/WithoutBiases" type="Convolution" version="opset1">
			<data strides="1, 1" dilations="1, 1" pads_begin="0, 0" pads_end="0, 0" auto_pad="explicit" />
			<input>
				<port id="0" precision="FP32">
					<dim>1</dim>
					<dim>32</dim>
					<dim>100</dim>
					<dim>124</dim>
				</port>
				<port id="1" precision="FP32">
					<dim>192</dim>
					<dim>32</dim>
					<dim>1</dim>
					<dim>1</dim>
				</port>
			</input>
			<output>
				<port id="2" precision="FP32">
					<dim>1</dim>
					<dim>192</dim>
					<dim>100</dim>
					<dim>124</dim>
				</port>
			</output>
		</layer>
		<layer id="95" name="Reshape_63162_compressed" type="Const" version="opset1">
			<data element_type="f16" shape="1, 192, 1, 1" offset="64144" size="384" />
			<output>
				<port id="0" precision="FP16">
					<dim>1</dim>
					<dim>192</dim>
					<dim>1</dim>
					<dim>1</dim>
				</port>
			</output>
		</layer>
		<layer id="96" name="Reshape_63162" type="Convert" version="opset1">
			<data destination_type="f32" />
			<rt_info>
				<attribute name="decompression" version="0" />
			</rt_info>
			<input>
				<port id="0" precision="FP16">
					<dim>1</dim>
					<dim>192</dim>
					<dim>1</dim>
					<dim>1</dim>
				</port>
			</input>
			<output>
				<port id="1" precision="FP32">
					<dim>1</dim>
					<dim>192</dim>
					<dim>1</dim>
					<dim>1</dim>
				</port>
			</output>
		</layer>
		<layer id="97" name="/backbone/stage3/unit2/conv1/conv/Conv" type="Add" version="opset1">
			<data auto_broadcast="numpy" />
			<input>
				<port id="0" precision="FP32">
					<dim>1</dim>
					<dim>192</dim>
					<dim>100</dim>
					<dim>124</dim>
				</port>
				<port id="1" precision="FP32">
					<dim>1</dim>
					<dim>192</dim>
					<dim>1</dim>
					<dim>1</dim>
				</port>
			</input>
			<output>
				<port id="2" precision="FP32" names="/backbone/stage3/unit2/conv1/conv/Conv_output_0">
					<dim>1</dim>
					<dim>192</dim>
					<dim>100</dim>
					<dim>124</dim>
				</port>
			</output>
		</layer>
		<layer id="98" name="/backbone/stage3/unit2/conv1/activ/Clip" type="Clamp" version="opset1">
			<data min="0" max="6" />
			<input>
				<port id="0" precision="FP32">
					<dim>1</dim>
					<dim>192</dim>
					<dim>100</dim>
					<dim>124</dim>
				</port>
			</input>
			<output>
				<port id="1" precision="FP32" names="/backbone/stage3/unit2/conv1/activ/Clip_output_0">
					<dim>1</dim>
					<dim>192</dim>
					<dim>100</dim>
					<dim>124</dim>
				</port>
			</output>
		</layer>
		<layer id="99" name="Reshape_63175_compressed" type="Const" version="opset1">
			<data element_type="f16" shape="192, 1, 1, 3, 3" offset="64528" size="3456" />
			<output>
				<port id="0" precision="FP16">
					<dim>192</dim>
					<dim>1</dim>
					<dim>1</dim>
					<dim>3</dim>
					<dim>3</dim>
				</port>
			</output>
		</layer>
		<layer id="100" name="Reshape_63175" type="Convert" version="opset1">
			<data destination_type="f32" />
			<rt_info>
				<attribute name="decompression" version="0" />
			</rt_info>
			<input>
				<port id="0" precision="FP16">
					<dim>192</dim>
					<dim>1</dim>
					<dim>1</dim>
					<dim>3</dim>
					<dim>3</dim>
				</port>
			</input>
			<output>
				<port id="1" precision="FP32">
					<dim>192</dim>
					<dim>1</dim>
					<dim>1</dim>
					<dim>3</dim>
					<dim>3</dim>
				</port>
			</output>
		</layer>
		<layer id="101" name="/backbone/stage3/unit2/conv2/conv/Conv/WithoutBiases" type="GroupConvolution" version="opset1">
			<data strides="1, 1" pads_begin="1, 1" pads_end="1, 1" dilations="1, 1" auto_pad="explicit" />
			<input>
				<port id="0" precision="FP32">
					<dim>1</dim>
					<dim>192</dim>
					<dim>100</dim>
					<dim>124</dim>
				</port>
				<port id="1" precision="FP32">
					<dim>192</dim>
					<dim>1</dim>
					<dim>1</dim>
					<dim>3</dim>
					<dim>3</dim>
				</port>
			</input>
			<output>
				<port id="2" precision="FP32">
					<dim>1</dim>
					<dim>192</dim>
					<dim>100</dim>
					<dim>124</dim>
				</port>
			</output>
		</layer>
		<layer id="102" name="Reshape_63225_compressed" type="Const" version="opset1">
			<data element_type="f16" shape="1, 192, 1, 1" offset="67984" size="384" />
			<output>
				<port id="0" precision="FP16">
					<dim>1</dim>
					<dim>192</dim>
					<dim>1</dim>
					<dim>1</dim>
				</port>
			</output>
		</layer>
		<layer id="103" name="Reshape_63225" type="Convert" version="opset1">
			<data destination_type="f32" />
			<rt_info>
				<attribute name="decompression" version="0" />
			</rt_info>
			<input>
				<port id="0" precision="FP16">
					<dim>1</dim>
					<dim>192</dim>
					<dim>1</dim>
					<dim>1</dim>
				</port>
			</input>
			<output>
				<port id="1" precision="FP32">
					<dim>1</dim>
					<dim>192</dim>
					<dim>1</dim>
					<dim>1</dim>
				</port>
			</output>
		</layer>
		<layer id="104" name="/backbone/stage3/unit2/conv2/conv/Conv" type="Add" version="opset1">
			<data auto_broadcast="numpy" />
			<input>
				<port id="0" precision="FP32">
					<dim>1</dim>
					<dim>192</dim>
					<dim>100</dim>
					<dim>124</dim>
				</port>
				<port id="1" precision="FP32">
					<dim>1</dim>
					<dim>192</dim>
					<dim>1</dim>
					<dim>1</dim>
				</port>
			</input>
			<output>
				<port id="2" precision="FP32" names="/backbone/stage3/unit2/conv2/conv/Conv_output_0">
					<dim>1</dim>
					<dim>192</dim>
					<dim>100</dim>
					<dim>124</dim>
				</port>
			</output>
		</layer>
		<layer id="105" name="/backbone/stage3/unit2/conv2/activ/Clip" type="Clamp" version="opset1">
			<data min="0" max="6" />
			<input>
				<port id="0" precision="FP32">
					<dim>1</dim>
					<dim>192</dim>
					<dim>100</dim>
					<dim>124</dim>
				</port>
			</input>
			<output>
				<port id="1" precision="FP32" names="/backbone/stage3/unit2/conv2/activ/Clip_output_0">
					<dim>1</dim>
					<dim>192</dim>
					<dim>100</dim>
					<dim>124</dim>
				</port>
			</output>
		</layer>
		<layer id="106" name="onnx::Conv_2534_compressed" type="Const" version="opset1">
			<data element_type="f16" shape="32, 192, 1, 1" offset="68368" size="12288" />
			<output>
				<port id="0" precision="FP16" names="onnx::Conv_2534">
					<dim>32</dim>
					<dim>192</dim>
					<dim>1</dim>
					<dim>1</dim>
				</port>
			</output>
		</layer>
		<layer id="107" name="onnx::Conv_2534" type="Convert" version="opset1">
			<data destination_type="f32" />
			<rt_info>
				<attribute name="decompression" version="0" />
			</rt_info>
			<input>
				<port id="0" precision="FP16">
					<dim>32</dim>
					<dim>192</dim>
					<dim>1</dim>
					<dim>1</dim>
				</port>
			</input>
			<output>
				<port id="1" precision="FP32">
					<dim>32</dim>
					<dim>192</dim>
					<dim>1</dim>
					<dim>1</dim>
				</port>
			</output>
		</layer>
		<layer id="108" name="/backbone/stage3/unit2/conv3/conv/Conv/WithoutBiases" type="Convolution" version="opset1">
			<data strides="1, 1" dilations="1, 1" pads_begin="0, 0" pads_end="0, 0" auto_pad="explicit" />
			<input>
				<port id="0" precision="FP32">
					<dim>1</dim>
					<dim>192</dim>
					<dim>100</dim>
					<dim>124</dim>
				</port>
				<port id="1" precision="FP32">
					<dim>32</dim>
					<dim>192</dim>
					<dim>1</dim>
					<dim>1</dim>
				</port>
			</input>
			<output>
				<port id="2" precision="FP32">
					<dim>1</dim>
					<dim>32</dim>
					<dim>100</dim>
					<dim>124</dim>
				</port>
			</output>
		</layer>
		<layer id="109" name="Reshape_63242_compressed" type="Const" version="opset1">
			<data element_type="f16" shape="1, 32, 1, 1" offset="80656" size="64" />
			<output>
				<port id="0" precision="FP16">
					<dim>1</dim>
					<dim>32</dim>
					<dim>1</dim>
					<dim>1</dim>
				</port>
			</output>
		</layer>
		<layer id="110" name="Reshape_63242" type="Convert" version="opset1">
			<data destination_type="f32" />
			<rt_info>
				<attribute name="decompression" version="0" />
			</rt_info>
			<input>
				<port id="0" precision="FP16">
					<dim>1</dim>
					<dim>32</dim>
					<dim>1</dim>
					<dim>1</dim>
				</port>
			</input>
			<output>
				<port id="1" precision="FP32">
					<dim>1</dim>
					<dim>32</dim>
					<dim>1</dim>
					<dim>1</dim>
				</port>
			</output>
		</layer>
		<layer id="111" name="/backbone/stage3/unit2/conv3/conv/Conv" type="Add" version="opset1">
			<data auto_broadcast="numpy" />
			<input>
				<port id="0" precision="FP32">
					<dim>1</dim>
					<dim>32</dim>
					<dim>100</dim>
					<dim>124</dim>
				</port>
				<port id="1" precision="FP32">
					<dim>1</dim>
					<dim>32</dim>
					<dim>1</dim>
					<dim>1</dim>
				</port>
			</input>
			<output>
				<port id="2" precision="FP32" names="/backbone/stage3/unit2/conv3/conv/Conv_output_0">
					<dim>1</dim>
					<dim>32</dim>
					<dim>100</dim>
					<dim>124</dim>
				</port>
			</output>
		</layer>
		<layer id="112" name="/backbone/stage3/unit2/Add" type="Add" version="opset1">
			<data auto_broadcast="numpy" />
			<input>
				<port id="0" precision="FP32">
					<dim>1</dim>
					<dim>32</dim>
					<dim>100</dim>
					<dim>124</dim>
				</port>
				<port id="1" precision="FP32">
					<dim>1</dim>
					<dim>32</dim>
					<dim>100</dim>
					<dim>124</dim>
				</port>
			</input>
			<output>
				<port id="2" precision="FP32" names="/backbone/stage3/unit2/Add_output_0">
					<dim>1</dim>
					<dim>32</dim>
					<dim>100</dim>
					<dim>124</dim>
				</port>
			</output>
		</layer>
		<layer id="113" name="onnx::Conv_2537_compressed" type="Const" version="opset1">
			<data element_type="f16" shape="192, 32, 1, 1" offset="80720" size="12288" />
			<output>
				<port id="0" precision="FP16" names="onnx::Conv_2537">
					<dim>192</dim>
					<dim>32</dim>
					<dim>1</dim>
					<dim>1</dim>
				</port>
			</output>
		</layer>
		<layer id="114" name="onnx::Conv_2537" type="Convert" version="opset1">
			<data destination_type="f32" />
			<rt_info>
				<attribute name="decompression" version="0" />
			</rt_info>
			<input>
				<port id="0" precision="FP16">
					<dim>192</dim>
					<dim>32</dim>
					<dim>1</dim>
					<dim>1</dim>
				</port>
			</input>
			<output>
				<port id="1" precision="FP32">
					<dim>192</dim>
					<dim>32</dim>
					<dim>1</dim>
					<dim>1</dim>
				</port>
			</output>
		</layer>
		<layer id="115" name="/backbone/stage3/unit3/conv1/conv/Conv/WithoutBiases" type="Convolution" version="opset1">
			<data strides="1, 1" dilations="1, 1" pads_begin="0, 0" pads_end="0, 0" auto_pad="explicit" />
			<input>
				<port id="0" precision="FP32">
					<dim>1</dim>
					<dim>32</dim>
					<dim>100</dim>
					<dim>124</dim>
				</port>
				<port id="1" precision="FP32">
					<dim>192</dim>
					<dim>32</dim>
					<dim>1</dim>
					<dim>1</dim>
				</port>
			</input>
			<output>
				<port id="2" precision="FP32">
					<dim>1</dim>
					<dim>192</dim>
					<dim>100</dim>
					<dim>124</dim>
				</port>
			</output>
		</layer>
		<layer id="116" name="Reshape_63256_compressed" type="Const" version="opset1">
			<data element_type="f16" shape="1, 192, 1, 1" offset="93008" size="384" />
			<output>
				<port id="0" precision="FP16">
					<dim>1</dim>
					<dim>192</dim>
					<dim>1</dim>
					<dim>1</dim>
				</port>
			</output>
		</layer>
		<layer id="117" name="Reshape_63256" type="Convert" version="opset1">
			<data destination_type="f32" />
			<rt_info>
				<attribute name="decompression" version="0" />
			</rt_info>
			<input>
				<port id="0" precision="FP16">
					<dim>1</dim>
					<dim>192</dim>
					<dim>1</dim>
					<dim>1</dim>
				</port>
			</input>
			<output>
				<port id="1" precision="FP32">
					<dim>1</dim>
					<dim>192</dim>
					<dim>1</dim>
					<dim>1</dim>
				</port>
			</output>
		</layer>
		<layer id="118" name="/backbone/stage3/unit3/conv1/conv/Conv" type="Add" version="opset1">
			<data auto_broadcast="numpy" />
			<input>
				<port id="0" precision="FP32">
					<dim>1</dim>
					<dim>192</dim>
					<dim>100</dim>
					<dim>124</dim>
				</port>
				<port id="1" precision="FP32">
					<dim>1</dim>
					<dim>192</dim>
					<dim>1</dim>
					<dim>1</dim>
				</port>
			</input>
			<output>
				<port id="2" precision="FP32" names="/backbone/stage3/unit3/conv1/conv/Conv_output_0">
					<dim>1</dim>
					<dim>192</dim>
					<dim>100</dim>
					<dim>124</dim>
				</port>
			</output>
		</layer>
		<layer id="119" name="/backbone/stage3/unit3/conv1/activ/Clip" type="Clamp" version="opset1">
			<data min="0" max="6" />
			<input>
				<port id="0" precision="FP32">
					<dim>1</dim>
					<dim>192</dim>
					<dim>100</dim>
					<dim>124</dim>
				</port>
			</input>
			<output>
				<port id="1" precision="FP32" names="/backbone/stage3/unit3/conv1/activ/Clip_output_0">
					<dim>1</dim>
					<dim>192</dim>
					<dim>100</dim>
					<dim>124</dim>
				</port>
			</output>
		</layer>
		<layer id="120" name="Reshape_63269_compressed" type="Const" version="opset1">
			<data element_type="f16" shape="192, 1, 1, 3, 3" offset="93392" size="3456" />
			<output>
				<port id="0" precision="FP16">
					<dim>192</dim>
					<dim>1</dim>
					<dim>1</dim>
					<dim>3</dim>
					<dim>3</dim>
				</port>
			</output>
		</layer>
		<layer id="121" name="Reshape_63269" type="Convert" version="opset1">
			<data destination_type="f32" />
			<rt_info>
				<attribute name="decompression" version="0" />
			</rt_info>
			<input>
				<port id="0" precision="FP16">
					<dim>192</dim>
					<dim>1</dim>
					<dim>1</dim>
					<dim>3</dim>
					<dim>3</dim>
				</port>
			</input>
			<output>
				<port id="1" precision="FP32">
					<dim>192</dim>
					<dim>1</dim>
					<dim>1</dim>
					<dim>3</dim>
					<dim>3</dim>
				</port>
			</output>
		</layer>
		<layer id="122" name="/backbone/stage3/unit3/conv2/conv/Conv/WithoutBiases" type="GroupConvolution" version="opset1">
			<data strides="1, 1" pads_begin="1, 1" pads_end="1, 1" dilations="1, 1" auto_pad="explicit" />
			<input>
				<port id="0" precision="FP32">
					<dim>1</dim>
					<dim>192</dim>
					<dim>100</dim>
					<dim>124</dim>
				</port>
				<port id="1" precision="FP32">
					<dim>192</dim>
					<dim>1</dim>
					<dim>1</dim>
					<dim>3</dim>
					<dim>3</dim>
				</port>
			</input>
			<output>
				<port id="2" precision="FP32">
					<dim>1</dim>
					<dim>192</dim>
					<dim>100</dim>
					<dim>124</dim>
				</port>
			</output>
		</layer>
		<layer id="123" name="Reshape_63319_compressed" type="Const" version="opset1">
			<data element_type="f16" shape="1, 192, 1, 1" offset="96848" size="384" />
			<output>
				<port id="0" precision="FP16">
					<dim>1</dim>
					<dim>192</dim>
					<dim>1</dim>
					<dim>1</dim>
				</port>
			</output>
		</layer>
		<layer id="124" name="Reshape_63319" type="Convert" version="opset1">
			<data destination_type="f32" />
			<rt_info>
				<attribute name="decompression" version="0" />
			</rt_info>
			<input>
				<port id="0" precision="FP16">
					<dim>1</dim>
					<dim>192</dim>
					<dim>1</dim>
					<dim>1</dim>
				</port>
			</input>
			<output>
				<port id="1" precision="FP32">
					<dim>1</dim>
					<dim>192</dim>
					<dim>1</dim>
					<dim>1</dim>
				</port>
			</output>
		</layer>
		<layer id="125" name="/backbone/stage3/unit3/conv2/conv/Conv" type="Add" version="opset1">
			<data auto_broadcast="numpy" />
			<input>
				<port id="0" precision="FP32">
					<dim>1</dim>
					<dim>192</dim>
					<dim>100</dim>
					<dim>124</dim>
				</port>
				<port id="1" precision="FP32">
					<dim>1</dim>
					<dim>192</dim>
					<dim>1</dim>
					<dim>1</dim>
				</port>
			</input>
			<output>
				<port id="2" precision="FP32" names="/backbone/stage3/unit3/conv2/conv/Conv_output_0">
					<dim>1</dim>
					<dim>192</dim>
					<dim>100</dim>
					<dim>124</dim>
				</port>
			</output>
		</layer>
		<layer id="126" name="/backbone/stage3/unit3/conv2/activ/Clip" type="Clamp" version="opset1">
			<data min="0" max="6" />
			<input>
				<port id="0" precision="FP32">
					<dim>1</dim>
					<dim>192</dim>
					<dim>100</dim>
					<dim>124</dim>
				</port>
			</input>
			<output>
				<port id="1" precision="FP32" names="/backbone/stage3/unit3/conv2/activ/Clip_output_0">
					<dim>1</dim>
					<dim>192</dim>
					<dim>100</dim>
					<dim>124</dim>
				</port>
			</output>
		</layer>
		<layer id="127" name="onnx::Conv_2543_compressed" type="Const" version="opset1">
			<data element_type="f16" shape="32, 192, 1, 1" offset="97232" size="12288" />
			<output>
				<port id="0" precision="FP16" names="onnx::Conv_2543">
					<dim>32</dim>
					<dim>192</dim>
					<dim>1</dim>
					<dim>1</dim>
				</port>
			</output>
		</layer>
		<layer id="128" name="onnx::Conv_2543" type="Convert" version="opset1">
			<data destination_type="f32" />
			<rt_info>
				<attribute name="decompression" version="0" />
			</rt_info>
			<input>
				<port id="0" precision="FP16">
					<dim>32</dim>
					<dim>192</dim>
					<dim>1</dim>
					<dim>1</dim>
				</port>
			</input>
			<output>
				<port id="1" precision="FP32">
					<dim>32</dim>
					<dim>192</dim>
					<dim>1</dim>
					<dim>1</dim>
				</port>
			</output>
		</layer>
		<layer id="129" name="/backbone/stage3/unit3/conv3/conv/Conv/WithoutBiases" type="Convolution" version="opset1">
			<data strides="1, 1" dilations="1, 1" pads_begin="0, 0" pads_end="0, 0" auto_pad="explicit" />
			<input>
				<port id="0" precision="FP32">
					<dim>1</dim>
					<dim>192</dim>
					<dim>100</dim>
					<dim>124</dim>
				</port>
				<port id="1" precision="FP32">
					<dim>32</dim>
					<dim>192</dim>
					<dim>1</dim>
					<dim>1</dim>
				</port>
			</input>
			<output>
				<port id="2" precision="FP32">
					<dim>1</dim>
					<dim>32</dim>
					<dim>100</dim>
					<dim>124</dim>
				</port>
			</output>
		</layer>
		<layer id="130" name="Reshape_63336_compressed" type="Const" version="opset1">
			<data element_type="f16" shape="1, 32, 1, 1" offset="109520" size="64" />
			<output>
				<port id="0" precision="FP16">
					<dim>1</dim>
					<dim>32</dim>
					<dim>1</dim>
					<dim>1</dim>
				</port>
			</output>
		</layer>
		<layer id="131" name="Reshape_63336" type="Convert" version="opset1">
			<data destination_type="f32" />
			<rt_info>
				<attribute name="decompression" version="0" />
			</rt_info>
			<input>
				<port id="0" precision="FP16">
					<dim>1</dim>
					<dim>32</dim>
					<dim>1</dim>
					<dim>1</dim>
				</port>
			</input>
			<output>
				<port id="1" precision="FP32">
					<dim>1</dim>
					<dim>32</dim>
					<dim>1</dim>
					<dim>1</dim>
				</port>
			</output>
		</layer>
		<layer id="132" name="/backbone/stage3/unit3/conv3/conv/Conv" type="Add" version="opset1">
			<data auto_broadcast="numpy" />
			<input>
				<port id="0" precision="FP32">
					<dim>1</dim>
					<dim>32</dim>
					<dim>100</dim>
					<dim>124</dim>
				</port>
				<port id="1" precision="FP32">
					<dim>1</dim>
					<dim>32</dim>
					<dim>1</dim>
					<dim>1</dim>
				</port>
			</input>
			<output>
				<port id="2" precision="FP32" names="/backbone/stage3/unit3/conv3/conv/Conv_output_0">
					<dim>1</dim>
					<dim>32</dim>
					<dim>100</dim>
					<dim>124</dim>
				</port>
			</output>
		</layer>
		<layer id="133" name="/backbone/stage3/unit3/Add" type="Add" version="opset1">
			<data auto_broadcast="numpy" />
			<input>
				<port id="0" precision="FP32">
					<dim>1</dim>
					<dim>32</dim>
					<dim>100</dim>
					<dim>124</dim>
				</port>
				<port id="1" precision="FP32">
					<dim>1</dim>
					<dim>32</dim>
					<dim>100</dim>
					<dim>124</dim>
				</port>
			</input>
			<output>
				<port id="2" precision="FP32" names="/backbone/stage3/unit3/Add_output_0">
					<dim>1</dim>
					<dim>32</dim>
					<dim>100</dim>
					<dim>124</dim>
				</port>
			</output>
		</layer>
		<layer id="134" name="model.neck.lateral_convs.0.conv.weight_compressed" type="Const" version="opset1">
			<data element_type="f16" shape="64, 32, 1, 1" offset="109584" size="4096" />
			<output>
				<port id="0" precision="FP16" names="model.neck.lateral_convs.0.conv.weight">
					<dim>64</dim>
					<dim>32</dim>
					<dim>1</dim>
					<dim>1</dim>
				</port>
			</output>
		</layer>
		<layer id="135" name="model.neck.lateral_convs.0.conv.weight" type="Convert" version="opset1">
			<data destination_type="f32" />
			<rt_info>
				<attribute name="decompression" version="0" />
			</rt_info>
			<input>
				<port id="0" precision="FP16">
					<dim>64</dim>
					<dim>32</dim>
					<dim>1</dim>
					<dim>1</dim>
				</port>
			</input>
			<output>
				<port id="1" precision="FP32">
					<dim>64</dim>
					<dim>32</dim>
					<dim>1</dim>
					<dim>1</dim>
				</port>
			</output>
		</layer>
		<layer id="136" name="/neck/lateral_convs.0/conv/Conv/WithoutBiases" type="Convolution" version="opset1">
			<data strides="1, 1" dilations="1, 1" pads_begin="0, 0" pads_end="0, 0" auto_pad="explicit" />
			<input>
				<port id="0" precision="FP32">
					<dim>1</dim>
					<dim>32</dim>
					<dim>100</dim>
					<dim>124</dim>
				</port>
				<port id="1" precision="FP32">
					<dim>64</dim>
					<dim>32</dim>
					<dim>1</dim>
					<dim>1</dim>
				</port>
			</input>
			<output>
				<port id="2" precision="FP32">
					<dim>1</dim>
					<dim>64</dim>
					<dim>100</dim>
					<dim>124</dim>
				</port>
			</output>
		</layer>
		<layer id="137" name="Reshape_64380_compressed" type="Const" version="opset1">
			<data element_type="f16" shape="1, 64, 1, 1" offset="113680" size="128" />
			<output>
				<port id="0" precision="FP16">
					<dim>1</dim>
					<dim>64</dim>
					<dim>1</dim>
					<dim>1</dim>
				</port>
			</output>
		</layer>
		<layer id="138" name="Reshape_64380" type="Convert" version="opset1">
			<data destination_type="f32" />
			<rt_info>
				<attribute name="decompression" version="0" />
			</rt_info>
			<input>
				<port id="0" precision="FP16">
					<dim>1</dim>
					<dim>64</dim>
					<dim>1</dim>
					<dim>1</dim>
				</port>
			</input>
			<output>
				<port id="1" precision="FP32">
					<dim>1</dim>
					<dim>64</dim>
					<dim>1</dim>
					<dim>1</dim>
				</port>
			</output>
		</layer>
		<layer id="139" name="/neck/lateral_convs.0/conv/Conv" type="Add" version="opset1">
			<data auto_broadcast="numpy" />
			<input>
				<port id="0" precision="FP32">
					<dim>1</dim>
					<dim>64</dim>
					<dim>100</dim>
					<dim>124</dim>
				</port>
				<port id="1" precision="FP32">
					<dim>1</dim>
					<dim>64</dim>
					<dim>1</dim>
					<dim>1</dim>
				</port>
			</input>
			<output>
				<port id="2" precision="FP32" names="/neck/lateral_convs.0/conv/Conv_output_0">
					<dim>1</dim>
					<dim>64</dim>
					<dim>100</dim>
					<dim>124</dim>
				</port>
			</output>
		</layer>
		<layer id="140" name="onnx::Conv_2546_compressed" type="Const" version="opset1">
			<data element_type="f16" shape="192, 32, 1, 1" offset="113808" size="12288" />
			<output>
				<port id="0" precision="FP16" names="onnx::Conv_2546">
					<dim>192</dim>
					<dim>32</dim>
					<dim>1</dim>
					<dim>1</dim>
				</port>
			</output>
		</layer>
		<layer id="141" name="onnx::Conv_2546" type="Convert" version="opset1">
			<data destination_type="f32" />
			<rt_info>
				<attribute name="decompression" version="0" />
			</rt_info>
			<input>
				<port id="0" precision="FP16">
					<dim>192</dim>
					<dim>32</dim>
					<dim>1</dim>
					<dim>1</dim>
				</port>
			</input>
			<output>
				<port id="1" precision="FP32">
					<dim>192</dim>
					<dim>32</dim>
					<dim>1</dim>
					<dim>1</dim>
				</port>
			</output>
		</layer>
		<layer id="142" name="/backbone/stage4/unit1/conv1/conv/Conv/WithoutBiases" type="Convolution" version="opset1">
			<data strides="1, 1" dilations="1, 1" pads_begin="0, 0" pads_end="0, 0" auto_pad="explicit" />
			<input>
				<port id="0" precision="FP32">
					<dim>1</dim>
					<dim>32</dim>
					<dim>100</dim>
					<dim>124</dim>
				</port>
				<port id="1" precision="FP32">
					<dim>192</dim>
					<dim>32</dim>
					<dim>1</dim>
					<dim>1</dim>
				</port>
			</input>
			<output>
				<port id="2" precision="FP32">
					<dim>1</dim>
					<dim>192</dim>
					<dim>100</dim>
					<dim>124</dim>
				</port>
			</output>
		</layer>
		<layer id="143" name="Reshape_63350_compressed" type="Const" version="opset1">
			<data element_type="f16" shape="1, 192, 1, 1" offset="126096" size="384" />
			<output>
				<port id="0" precision="FP16">
					<dim>1</dim>
					<dim>192</dim>
					<dim>1</dim>
					<dim>1</dim>
				</port>
			</output>
		</layer>
		<layer id="144" name="Reshape_63350" type="Convert" version="opset1">
			<data destination_type="f32" />
			<rt_info>
				<attribute name="decompression" version="0" />
			</rt_info>
			<input>
				<port id="0" precision="FP16">
					<dim>1</dim>
					<dim>192</dim>
					<dim>1</dim>
					<dim>1</dim>
				</port>
			</input>
			<output>
				<port id="1" precision="FP32">
					<dim>1</dim>
					<dim>192</dim>
					<dim>1</dim>
					<dim>1</dim>
				</port>
			</output>
		</layer>
		<layer id="145" name="/backbone/stage4/unit1/conv1/conv/Conv" type="Add" version="opset1">
			<data auto_broadcast="numpy" />
			<input>
				<port id="0" precision="FP32">
					<dim>1</dim>
					<dim>192</dim>
					<dim>100</dim>
					<dim>124</dim>
				</port>
				<port id="1" precision="FP32">
					<dim>1</dim>
					<dim>192</dim>
					<dim>1</dim>
					<dim>1</dim>
				</port>
			</input>
			<output>
				<port id="2" precision="FP32" names="/backbone/stage4/unit1/conv1/conv/Conv_output_0">
					<dim>1</dim>
					<dim>192</dim>
					<dim>100</dim>
					<dim>124</dim>
				</port>
			</output>
		</layer>
		<layer id="146" name="/backbone/stage4/unit1/conv1/activ/Clip" type="Clamp" version="opset1">
			<data min="0" max="6" />
			<input>
				<port id="0" precision="FP32">
					<dim>1</dim>
					<dim>192</dim>
					<dim>100</dim>
					<dim>124</dim>
				</port>
			</input>
			<output>
				<port id="1" precision="FP32" names="/backbone/stage4/unit1/conv1/activ/Clip_output_0">
					<dim>1</dim>
					<dim>192</dim>
					<dim>100</dim>
					<dim>124</dim>
				</port>
			</output>
		</layer>
		<layer id="147" name="Reshape_63363_compressed" type="Const" version="opset1">
			<data element_type="f16" shape="192, 1, 1, 3, 3" offset="126480" size="3456" />
			<output>
				<port id="0" precision="FP16">
					<dim>192</dim>
					<dim>1</dim>
					<dim>1</dim>
					<dim>3</dim>
					<dim>3</dim>
				</port>
			</output>
		</layer>
		<layer id="148" name="Reshape_63363" type="Convert" version="opset1">
			<data destination_type="f32" />
			<rt_info>
				<attribute name="decompression" version="0" />
			</rt_info>
			<input>
				<port id="0" precision="FP16">
					<dim>192</dim>
					<dim>1</dim>
					<dim>1</dim>
					<dim>3</dim>
					<dim>3</dim>
				</port>
			</input>
			<output>
				<port id="1" precision="FP32">
					<dim>192</dim>
					<dim>1</dim>
					<dim>1</dim>
					<dim>3</dim>
					<dim>3</dim>
				</port>
			</output>
		</layer>
		<layer id="149" name="/backbone/stage4/unit1/conv2/conv/Conv/WithoutBiases" type="GroupConvolution" version="opset1">
			<data strides="2, 2" pads_begin="1, 1" pads_end="1, 1" dilations="1, 1" auto_pad="explicit" />
			<input>
				<port id="0" precision="FP32">
					<dim>1</dim>
					<dim>192</dim>
					<dim>100</dim>
					<dim>124</dim>
				</port>
				<port id="1" precision="FP32">
					<dim>192</dim>
					<dim>1</dim>
					<dim>1</dim>
					<dim>3</dim>
					<dim>3</dim>
				</port>
			</input>
			<output>
				<port id="2" precision="FP32">
					<dim>1</dim>
					<dim>192</dim>
					<dim>50</dim>
					<dim>62</dim>
				</port>
			</output>
		</layer>
		<layer id="150" name="Reshape_63413_compressed" type="Const" version="opset1">
			<data element_type="f16" shape="1, 192, 1, 1" offset="129936" size="384" />
			<output>
				<port id="0" precision="FP16">
					<dim>1</dim>
					<dim>192</dim>
					<dim>1</dim>
					<dim>1</dim>
				</port>
			</output>
		</layer>
		<layer id="151" name="Reshape_63413" type="Convert" version="opset1">
			<data destination_type="f32" />
			<rt_info>
				<attribute name="decompression" version="0" />
			</rt_info>
			<input>
				<port id="0" precision="FP16">
					<dim>1</dim>
					<dim>192</dim>
					<dim>1</dim>
					<dim>1</dim>
				</port>
			</input>
			<output>
				<port id="1" precision="FP32">
					<dim>1</dim>
					<dim>192</dim>
					<dim>1</dim>
					<dim>1</dim>
				</port>
			</output>
		</layer>
		<layer id="152" name="/backbone/stage4/unit1/conv2/conv/Conv" type="Add" version="opset1">
			<data auto_broadcast="numpy" />
			<input>
				<port id="0" precision="FP32">
					<dim>1</dim>
					<dim>192</dim>
					<dim>50</dim>
					<dim>62</dim>
				</port>
				<port id="1" precision="FP32">
					<dim>1</dim>
					<dim>192</dim>
					<dim>1</dim>
					<dim>1</dim>
				</port>
			</input>
			<output>
				<port id="2" precision="FP32" names="/backbone/stage4/unit1/conv2/conv/Conv_output_0">
					<dim>1</dim>
					<dim>192</dim>
					<dim>50</dim>
					<dim>62</dim>
				</port>
			</output>
		</layer>
		<layer id="153" name="/backbone/stage4/unit1/conv2/activ/Clip" type="Clamp" version="opset1">
			<data min="0" max="6" />
			<input>
				<port id="0" precision="FP32">
					<dim>1</dim>
					<dim>192</dim>
					<dim>50</dim>
					<dim>62</dim>
				</port>
			</input>
			<output>
				<port id="1" precision="FP32" names="/backbone/stage4/unit1/conv2/activ/Clip_output_0">
					<dim>1</dim>
					<dim>192</dim>
					<dim>50</dim>
					<dim>62</dim>
				</port>
			</output>
		</layer>
		<layer id="154" name="onnx::Conv_2552_compressed" type="Const" version="opset1">
			<data element_type="f16" shape="64, 192, 1, 1" offset="130320" size="24576" />
			<output>
				<port id="0" precision="FP16" names="onnx::Conv_2552">
					<dim>64</dim>
					<dim>192</dim>
					<dim>1</dim>
					<dim>1</dim>
				</port>
			</output>
		</layer>
		<layer id="155" name="onnx::Conv_2552" type="Convert" version="opset1">
			<data destination_type="f32" />
			<rt_info>
				<attribute name="decompression" version="0" />
			</rt_info>
			<input>
				<port id="0" precision="FP16">
					<dim>64</dim>
					<dim>192</dim>
					<dim>1</dim>
					<dim>1</dim>
				</port>
			</input>
			<output>
				<port id="1" precision="FP32">
					<dim>64</dim>
					<dim>192</dim>
					<dim>1</dim>
					<dim>1</dim>
				</port>
			</output>
		</layer>
		<layer id="156" name="/backbone/stage4/unit1/conv3/conv/Conv/WithoutBiases" type="Convolution" version="opset1">
			<data strides="1, 1" dilations="1, 1" pads_begin="0, 0" pads_end="0, 0" auto_pad="explicit" />
			<input>
				<port id="0" precision="FP32">
					<dim>1</dim>
					<dim>192</dim>
					<dim>50</dim>
					<dim>62</dim>
				</port>
				<port id="1" precision="FP32">
					<dim>64</dim>
					<dim>192</dim>
					<dim>1</dim>
					<dim>1</dim>
				</port>
			</input>
			<output>
				<port id="2" precision="FP32">
					<dim>1</dim>
					<dim>64</dim>
					<dim>50</dim>
					<dim>62</dim>
				</port>
			</output>
		</layer>
		<layer id="157" name="Reshape_63430_compressed" type="Const" version="opset1">
			<data element_type="f16" shape="1, 64, 1, 1" offset="154896" size="128" />
			<output>
				<port id="0" precision="FP16">
					<dim>1</dim>
					<dim>64</dim>
					<dim>1</dim>
					<dim>1</dim>
				</port>
			</output>
		</layer>
		<layer id="158" name="Reshape_63430" type="Convert" version="opset1">
			<data destination_type="f32" />
			<rt_info>
				<attribute name="decompression" version="0" />
			</rt_info>
			<input>
				<port id="0" precision="FP16">
					<dim>1</dim>
					<dim>64</dim>
					<dim>1</dim>
					<dim>1</dim>
				</port>
			</input>
			<output>
				<port id="1" precision="FP32">
					<dim>1</dim>
					<dim>64</dim>
					<dim>1</dim>
					<dim>1</dim>
				</port>
			</output>
		</layer>
		<layer id="159" name="/backbone/stage4/unit1/conv3/conv/Conv" type="Add" version="opset1">
			<data auto_broadcast="numpy" />
			<input>
				<port id="0" precision="FP32">
					<dim>1</dim>
					<dim>64</dim>
					<dim>50</dim>
					<dim>62</dim>
				</port>
				<port id="1" precision="FP32">
					<dim>1</dim>
					<dim>64</dim>
					<dim>1</dim>
					<dim>1</dim>
				</port>
			</input>
			<output>
				<port id="2" precision="FP32" names="/backbone/stage4/unit1/conv3/conv/Conv_output_0">
					<dim>1</dim>
					<dim>64</dim>
					<dim>50</dim>
					<dim>62</dim>
				</port>
			</output>
		</layer>
		<layer id="160" name="onnx::Conv_2555_compressed" type="Const" version="opset1">
			<data element_type="f16" shape="384, 64, 1, 1" offset="155024" size="49152" />
			<output>
				<port id="0" precision="FP16" names="onnx::Conv_2555">
					<dim>384</dim>
					<dim>64</dim>
					<dim>1</dim>
					<dim>1</dim>
				</port>
			</output>
		</layer>
		<layer id="161" name="onnx::Conv_2555" type="Convert" version="opset1">
			<data destination_type="f32" />
			<rt_info>
				<attribute name="decompression" version="0" />
			</rt_info>
			<input>
				<port id="0" precision="FP16">
					<dim>384</dim>
					<dim>64</dim>
					<dim>1</dim>
					<dim>1</dim>
				</port>
			</input>
			<output>
				<port id="1" precision="FP32">
					<dim>384</dim>
					<dim>64</dim>
					<dim>1</dim>
					<dim>1</dim>
				</port>
			</output>
		</layer>
		<layer id="162" name="/backbone/stage4/unit2/conv1/conv/Conv/WithoutBiases" type="Convolution" version="opset1">
			<data strides="1, 1" dilations="1, 1" pads_begin="0, 0" pads_end="0, 0" auto_pad="explicit" />
			<input>
				<port id="0" precision="FP32">
					<dim>1</dim>
					<dim>64</dim>
					<dim>50</dim>
					<dim>62</dim>
				</port>
				<port id="1" precision="FP32">
					<dim>384</dim>
					<dim>64</dim>
					<dim>1</dim>
					<dim>1</dim>
				</port>
			</input>
			<output>
				<port id="2" precision="FP32">
					<dim>1</dim>
					<dim>384</dim>
					<dim>50</dim>
					<dim>62</dim>
				</port>
			</output>
		</layer>
		<layer id="163" name="Reshape_63443_compressed" type="Const" version="opset1">
			<data element_type="f16" shape="1, 384, 1, 1" offset="204176" size="768" />
			<output>
				<port id="0" precision="FP16">
					<dim>1</dim>
					<dim>384</dim>
					<dim>1</dim>
					<dim>1</dim>
				</port>
			</output>
		</layer>
		<layer id="164" name="Reshape_63443" type="Convert" version="opset1">
			<data destination_type="f32" />
			<rt_info>
				<attribute name="decompression" version="0" />
			</rt_info>
			<input>
				<port id="0" precision="FP16">
					<dim>1</dim>
					<dim>384</dim>
					<dim>1</dim>
					<dim>1</dim>
				</port>
			</input>
			<output>
				<port id="1" precision="FP32">
					<dim>1</dim>
					<dim>384</dim>
					<dim>1</dim>
					<dim>1</dim>
				</port>
			</output>
		</layer>
		<layer id="165" name="/backbone/stage4/unit2/conv1/conv/Conv" type="Add" version="opset1">
			<data auto_broadcast="numpy" />
			<input>
				<port id="0" precision="FP32">
					<dim>1</dim>
					<dim>384</dim>
					<dim>50</dim>
					<dim>62</dim>
				</port>
				<port id="1" precision="FP32">
					<dim>1</dim>
					<dim>384</dim>
					<dim>1</dim>
					<dim>1</dim>
				</port>
			</input>
			<output>
				<port id="2" precision="FP32" names="/backbone/stage4/unit2/conv1/conv/Conv_output_0">
					<dim>1</dim>
					<dim>384</dim>
					<dim>50</dim>
					<dim>62</dim>
				</port>
			</output>
		</layer>
		<layer id="166" name="/backbone/stage4/unit2/conv1/activ/Clip" type="Clamp" version="opset1">
			<data min="0" max="6" />
			<input>
				<port id="0" precision="FP32">
					<dim>1</dim>
					<dim>384</dim>
					<dim>50</dim>
					<dim>62</dim>
				</port>
			</input>
			<output>
				<port id="1" precision="FP32" names="/backbone/stage4/unit2/conv1/activ/Clip_output_0">
					<dim>1</dim>
					<dim>384</dim>
					<dim>50</dim>
					<dim>62</dim>
				</port>
			</output>
		</layer>
		<layer id="167" name="Reshape_63456_compressed" type="Const" version="opset1">
			<data element_type="f16" shape="384, 1, 1, 3, 3" offset="204944" size="6912" />
			<output>
				<port id="0" precision="FP16">
					<dim>384</dim>
					<dim>1</dim>
					<dim>1</dim>
					<dim>3</dim>
					<dim>3</dim>
				</port>
			</output>
		</layer>
		<layer id="168" name="Reshape_63456" type="Convert" version="opset1">
			<data destination_type="f32" />
			<rt_info>
				<attribute name="decompression" version="0" />
			</rt_info>
			<input>
				<port id="0" precision="FP16">
					<dim>384</dim>
					<dim>1</dim>
					<dim>1</dim>
					<dim>3</dim>
					<dim>3</dim>
				</port>
			</input>
			<output>
				<port id="1" precision="FP32">
					<dim>384</dim>
					<dim>1</dim>
					<dim>1</dim>
					<dim>3</dim>
					<dim>3</dim>
				</port>
			</output>
		</layer>
		<layer id="169" name="/backbone/stage4/unit2/conv2/conv/Conv/WithoutBiases" type="GroupConvolution" version="opset1">
			<data strides="1, 1" pads_begin="1, 1" pads_end="1, 1" dilations="1, 1" auto_pad="explicit" />
			<input>
				<port id="0" precision="FP32">
					<dim>1</dim>
					<dim>384</dim>
					<dim>50</dim>
					<dim>62</dim>
				</port>
				<port id="1" precision="FP32">
					<dim>384</dim>
					<dim>1</dim>
					<dim>1</dim>
					<dim>3</dim>
					<dim>3</dim>
				</port>
			</input>
			<output>
				<port id="2" precision="FP32">
					<dim>1</dim>
					<dim>384</dim>
					<dim>50</dim>
					<dim>62</dim>
				</port>
			</output>
		</layer>
		<layer id="170" name="Reshape_63506_compressed" type="Const" version="opset1">
			<data element_type="f16" shape="1, 384, 1, 1" offset="211856" size="768" />
			<output>
				<port id="0" precision="FP16">
					<dim>1</dim>
					<dim>384</dim>
					<dim>1</dim>
					<dim>1</dim>
				</port>
			</output>
		</layer>
		<layer id="171" name="Reshape_63506" type="Convert" version="opset1">
			<data destination_type="f32" />
			<rt_info>
				<attribute name="decompression" version="0" />
			</rt_info>
			<input>
				<port id="0" precision="FP16">
					<dim>1</dim>
					<dim>384</dim>
					<dim>1</dim>
					<dim>1</dim>
				</port>
			</input>
			<output>
				<port id="1" precision="FP32">
					<dim>1</dim>
					<dim>384</dim>
					<dim>1</dim>
					<dim>1</dim>
				</port>
			</output>
		</layer>
		<layer id="172" name="/backbone/stage4/unit2/conv2/conv/Conv" type="Add" version="opset1">
			<data auto_broadcast="numpy" />
			<input>
				<port id="0" precision="FP32">
					<dim>1</dim>
					<dim>384</dim>
					<dim>50</dim>
					<dim>62</dim>
				</port>
				<port id="1" precision="FP32">
					<dim>1</dim>
					<dim>384</dim>
					<dim>1</dim>
					<dim>1</dim>
				</port>
			</input>
			<output>
				<port id="2" precision="FP32" names="/backbone/stage4/unit2/conv2/conv/Conv_output_0">
					<dim>1</dim>
					<dim>384</dim>
					<dim>50</dim>
					<dim>62</dim>
				</port>
			</output>
		</layer>
		<layer id="173" name="/backbone/stage4/unit2/conv2/activ/Clip" type="Clamp" version="opset1">
			<data min="0" max="6" />
			<input>
				<port id="0" precision="FP32">
					<dim>1</dim>
					<dim>384</dim>
					<dim>50</dim>
					<dim>62</dim>
				</port>
			</input>
			<output>
				<port id="1" precision="FP32" names="/backbone/stage4/unit2/conv2/activ/Clip_output_0">
					<dim>1</dim>
					<dim>384</dim>
					<dim>50</dim>
					<dim>62</dim>
				</port>
			</output>
		</layer>
		<layer id="174" name="onnx::Conv_2561_compressed" type="Const" version="opset1">
			<data element_type="f16" shape="64, 384, 1, 1" offset="212624" size="49152" />
			<output>
				<port id="0" precision="FP16" names="onnx::Conv_2561">
					<dim>64</dim>
					<dim>384</dim>
					<dim>1</dim>
					<dim>1</dim>
				</port>
			</output>
		</layer>
		<layer id="175" name="onnx::Conv_2561" type="Convert" version="opset1">
			<data destination_type="f32" />
			<rt_info>
				<attribute name="decompression" version="0" />
			</rt_info>
			<input>
				<port id="0" precision="FP16">
					<dim>64</dim>
					<dim>384</dim>
					<dim>1</dim>
					<dim>1</dim>
				</port>
			</input>
			<output>
				<port id="1" precision="FP32">
					<dim>64</dim>
					<dim>384</dim>
					<dim>1</dim>
					<dim>1</dim>
				</port>
			</output>
		</layer>
		<layer id="176" name="/backbone/stage4/unit2/conv3/conv/Conv/WithoutBiases" type="Convolution" version="opset1">
			<data strides="1, 1" dilations="1, 1" pads_begin="0, 0" pads_end="0, 0" auto_pad="explicit" />
			<input>
				<port id="0" precision="FP32">
					<dim>1</dim>
					<dim>384</dim>
					<dim>50</dim>
					<dim>62</dim>
				</port>
				<port id="1" precision="FP32">
					<dim>64</dim>
					<dim>384</dim>
					<dim>1</dim>
					<dim>1</dim>
				</port>
			</input>
			<output>
				<port id="2" precision="FP32">
					<dim>1</dim>
					<dim>64</dim>
					<dim>50</dim>
					<dim>62</dim>
				</port>
			</output>
		</layer>
		<layer id="177" name="Reshape_63523_compressed" type="Const" version="opset1">
			<data element_type="f16" shape="1, 64, 1, 1" offset="261776" size="128" />
			<output>
				<port id="0" precision="FP16">
					<dim>1</dim>
					<dim>64</dim>
					<dim>1</dim>
					<dim>1</dim>
				</port>
			</output>
		</layer>
		<layer id="178" name="Reshape_63523" type="Convert" version="opset1">
			<data destination_type="f32" />
			<rt_info>
				<attribute name="decompression" version="0" />
			</rt_info>
			<input>
				<port id="0" precision="FP16">
					<dim>1</dim>
					<dim>64</dim>
					<dim>1</dim>
					<dim>1</dim>
				</port>
			</input>
			<output>
				<port id="1" precision="FP32">
					<dim>1</dim>
					<dim>64</dim>
					<dim>1</dim>
					<dim>1</dim>
				</port>
			</output>
		</layer>
		<layer id="179" name="/backbone/stage4/unit2/conv3/conv/Conv" type="Add" version="opset1">
			<data auto_broadcast="numpy" />
			<input>
				<port id="0" precision="FP32">
					<dim>1</dim>
					<dim>64</dim>
					<dim>50</dim>
					<dim>62</dim>
				</port>
				<port id="1" precision="FP32">
					<dim>1</dim>
					<dim>64</dim>
					<dim>1</dim>
					<dim>1</dim>
				</port>
			</input>
			<output>
				<port id="2" precision="FP32" names="/backbone/stage4/unit2/conv3/conv/Conv_output_0">
					<dim>1</dim>
					<dim>64</dim>
					<dim>50</dim>
					<dim>62</dim>
				</port>
			</output>
		</layer>
		<layer id="180" name="/backbone/stage4/unit2/Add" type="Add" version="opset1">
			<data auto_broadcast="numpy" />
			<input>
				<port id="0" precision="FP32">
					<dim>1</dim>
					<dim>64</dim>
					<dim>50</dim>
					<dim>62</dim>
				</port>
				<port id="1" precision="FP32">
					<dim>1</dim>
					<dim>64</dim>
					<dim>50</dim>
					<dim>62</dim>
				</port>
			</input>
			<output>
				<port id="2" precision="FP32" names="/backbone/stage4/unit2/Add_output_0">
					<dim>1</dim>
					<dim>64</dim>
					<dim>50</dim>
					<dim>62</dim>
				</port>
			</output>
		</layer>
		<layer id="181" name="onnx::Conv_2564_compressed" type="Const" version="opset1">
			<data element_type="f16" shape="384, 64, 1, 1" offset="261904" size="49152" />
			<output>
				<port id="0" precision="FP16" names="onnx::Conv_2564">
					<dim>384</dim>
					<dim>64</dim>
					<dim>1</dim>
					<dim>1</dim>
				</port>
			</output>
		</layer>
		<layer id="182" name="onnx::Conv_2564" type="Convert" version="opset1">
			<data destination_type="f32" />
			<rt_info>
				<attribute name="decompression" version="0" />
			</rt_info>
			<input>
				<port id="0" precision="FP16">
					<dim>384</dim>
					<dim>64</dim>
					<dim>1</dim>
					<dim>1</dim>
				</port>
			</input>
			<output>
				<port id="1" precision="FP32">
					<dim>384</dim>
					<dim>64</dim>
					<dim>1</dim>
					<dim>1</dim>
				</port>
			</output>
		</layer>
		<layer id="183" name="/backbone/stage4/unit3/conv1/conv/Conv/WithoutBiases" type="Convolution" version="opset1">
			<data strides="1, 1" dilations="1, 1" pads_begin="0, 0" pads_end="0, 0" auto_pad="explicit" />
			<input>
				<port id="0" precision="FP32">
					<dim>1</dim>
					<dim>64</dim>
					<dim>50</dim>
					<dim>62</dim>
				</port>
				<port id="1" precision="FP32">
					<dim>384</dim>
					<dim>64</dim>
					<dim>1</dim>
					<dim>1</dim>
				</port>
			</input>
			<output>
				<port id="2" precision="FP32">
					<dim>1</dim>
					<dim>384</dim>
					<dim>50</dim>
					<dim>62</dim>
				</port>
			</output>
		</layer>
		<layer id="184" name="Reshape_63537_compressed" type="Const" version="opset1">
			<data element_type="f16" shape="1, 384, 1, 1" offset="311056" size="768" />
			<output>
				<port id="0" precision="FP16">
					<dim>1</dim>
					<dim>384</dim>
					<dim>1</dim>
					<dim>1</dim>
				</port>
			</output>
		</layer>
		<layer id="185" name="Reshape_63537" type="Convert" version="opset1">
			<data destination_type="f32" />
			<rt_info>
				<attribute name="decompression" version="0" />
			</rt_info>
			<input>
				<port id="0" precision="FP16">
					<dim>1</dim>
					<dim>384</dim>
					<dim>1</dim>
					<dim>1</dim>
				</port>
			</input>
			<output>
				<port id="1" precision="FP32">
					<dim>1</dim>
					<dim>384</dim>
					<dim>1</dim>
					<dim>1</dim>
				</port>
			</output>
		</layer>
		<layer id="186" name="/backbone/stage4/unit3/conv1/conv/Conv" type="Add" version="opset1">
			<data auto_broadcast="numpy" />
			<input>
				<port id="0" precision="FP32">
					<dim>1</dim>
					<dim>384</dim>
					<dim>50</dim>
					<dim>62</dim>
				</port>
				<port id="1" precision="FP32">
					<dim>1</dim>
					<dim>384</dim>
					<dim>1</dim>
					<dim>1</dim>
				</port>
			</input>
			<output>
				<port id="2" precision="FP32" names="/backbone/stage4/unit3/conv1/conv/Conv_output_0">
					<dim>1</dim>
					<dim>384</dim>
					<dim>50</dim>
					<dim>62</dim>
				</port>
			</output>
		</layer>
		<layer id="187" name="/backbone/stage4/unit3/conv1/activ/Clip" type="Clamp" version="opset1">
			<data min="0" max="6" />
			<input>
				<port id="0" precision="FP32">
					<dim>1</dim>
					<dim>384</dim>
					<dim>50</dim>
					<dim>62</dim>
				</port>
			</input>
			<output>
				<port id="1" precision="FP32" names="/backbone/stage4/unit3/conv1/activ/Clip_output_0">
					<dim>1</dim>
					<dim>384</dim>
					<dim>50</dim>
					<dim>62</dim>
				</port>
			</output>
		</layer>
		<layer id="188" name="Reshape_63550_compressed" type="Const" version="opset1">
			<data element_type="f16" shape="384, 1, 1, 3, 3" offset="311824" size="6912" />
			<output>
				<port id="0" precision="FP16">
					<dim>384</dim>
					<dim>1</dim>
					<dim>1</dim>
					<dim>3</dim>
					<dim>3</dim>
				</port>
			</output>
		</layer>
		<layer id="189" name="Reshape_63550" type="Convert" version="opset1">
			<data destination_type="f32" />
			<rt_info>
				<attribute name="decompression" version="0" />
			</rt_info>
			<input>
				<port id="0" precision="FP16">
					<dim>384</dim>
					<dim>1</dim>
					<dim>1</dim>
					<dim>3</dim>
					<dim>3</dim>
				</port>
			</input>
			<output>
				<port id="1" precision="FP32">
					<dim>384</dim>
					<dim>1</dim>
					<dim>1</dim>
					<dim>3</dim>
					<dim>3</dim>
				</port>
			</output>
		</layer>
		<layer id="190" name="/backbone/stage4/unit3/conv2/conv/Conv/WithoutBiases" type="GroupConvolution" version="opset1">
			<data strides="1, 1" pads_begin="1, 1" pads_end="1, 1" dilations="1, 1" auto_pad="explicit" />
			<input>
				<port id="0" precision="FP32">
					<dim>1</dim>
					<dim>384</dim>
					<dim>50</dim>
					<dim>62</dim>
				</port>
				<port id="1" precision="FP32">
					<dim>384</dim>
					<dim>1</dim>
					<dim>1</dim>
					<dim>3</dim>
					<dim>3</dim>
				</port>
			</input>
			<output>
				<port id="2" precision="FP32">
					<dim>1</dim>
					<dim>384</dim>
					<dim>50</dim>
					<dim>62</dim>
				</port>
			</output>
		</layer>
		<layer id="191" name="Reshape_63600_compressed" type="Const" version="opset1">
			<data element_type="f16" shape="1, 384, 1, 1" offset="318736" size="768" />
			<output>
				<port id="0" precision="FP16">
					<dim>1</dim>
					<dim>384</dim>
					<dim>1</dim>
					<dim>1</dim>
				</port>
			</output>
		</layer>
		<layer id="192" name="Reshape_63600" type="Convert" version="opset1">
			<data destination_type="f32" />
			<rt_info>
				<attribute name="decompression" version="0" />
			</rt_info>
			<input>
				<port id="0" precision="FP16">
					<dim>1</dim>
					<dim>384</dim>
					<dim>1</dim>
					<dim>1</dim>
				</port>
			</input>
			<output>
				<port id="1" precision="FP32">
					<dim>1</dim>
					<dim>384</dim>
					<dim>1</dim>
					<dim>1</dim>
				</port>
			</output>
		</layer>
		<layer id="193" name="/backbone/stage4/unit3/conv2/conv/Conv" type="Add" version="opset1">
			<data auto_broadcast="numpy" />
			<input>
				<port id="0" precision="FP32">
					<dim>1</dim>
					<dim>384</dim>
					<dim>50</dim>
					<dim>62</dim>
				</port>
				<port id="1" precision="FP32">
					<dim>1</dim>
					<dim>384</dim>
					<dim>1</dim>
					<dim>1</dim>
				</port>
			</input>
			<output>
				<port id="2" precision="FP32" names="/backbone/stage4/unit3/conv2/conv/Conv_output_0">
					<dim>1</dim>
					<dim>384</dim>
					<dim>50</dim>
					<dim>62</dim>
				</port>
			</output>
		</layer>
		<layer id="194" name="/backbone/stage4/unit3/conv2/activ/Clip" type="Clamp" version="opset1">
			<data min="0" max="6" />
			<input>
				<port id="0" precision="FP32">
					<dim>1</dim>
					<dim>384</dim>
					<dim>50</dim>
					<dim>62</dim>
				</port>
			</input>
			<output>
				<port id="1" precision="FP32" names="/backbone/stage4/unit3/conv2/activ/Clip_output_0">
					<dim>1</dim>
					<dim>384</dim>
					<dim>50</dim>
					<dim>62</dim>
				</port>
			</output>
		</layer>
		<layer id="195" name="onnx::Conv_2570_compressed" type="Const" version="opset1">
			<data element_type="f16" shape="64, 384, 1, 1" offset="319504" size="49152" />
			<output>
				<port id="0" precision="FP16" names="onnx::Conv_2570">
					<dim>64</dim>
					<dim>384</dim>
					<dim>1</dim>
					<dim>1</dim>
				</port>
			</output>
		</layer>
		<layer id="196" name="onnx::Conv_2570" type="Convert" version="opset1">
			<data destination_type="f32" />
			<rt_info>
				<attribute name="decompression" version="0" />
			</rt_info>
			<input>
				<port id="0" precision="FP16">
					<dim>64</dim>
					<dim>384</dim>
					<dim>1</dim>
					<dim>1</dim>
				</port>
			</input>
			<output>
				<port id="1" precision="FP32">
					<dim>64</dim>
					<dim>384</dim>
					<dim>1</dim>
					<dim>1</dim>
				</port>
			</output>
		</layer>
		<layer id="197" name="/backbone/stage4/unit3/conv3/conv/Conv/WithoutBiases" type="Convolution" version="opset1">
			<data strides="1, 1" dilations="1, 1" pads_begin="0, 0" pads_end="0, 0" auto_pad="explicit" />
			<input>
				<port id="0" precision="FP32">
					<dim>1</dim>
					<dim>384</dim>
					<dim>50</dim>
					<dim>62</dim>
				</port>
				<port id="1" precision="FP32">
					<dim>64</dim>
					<dim>384</dim>
					<dim>1</dim>
					<dim>1</dim>
				</port>
			</input>
			<output>
				<port id="2" precision="FP32">
					<dim>1</dim>
					<dim>64</dim>
					<dim>50</dim>
					<dim>62</dim>
				</port>
			</output>
		</layer>
		<layer id="198" name="Reshape_63617_compressed" type="Const" version="opset1">
			<data element_type="f16" shape="1, 64, 1, 1" offset="368656" size="128" />
			<output>
				<port id="0" precision="FP16">
					<dim>1</dim>
					<dim>64</dim>
					<dim>1</dim>
					<dim>1</dim>
				</port>
			</output>
		</layer>
		<layer id="199" name="Reshape_63617" type="Convert" version="opset1">
			<data destination_type="f32" />
			<rt_info>
				<attribute name="decompression" version="0" />
			</rt_info>
			<input>
				<port id="0" precision="FP16">
					<dim>1</dim>
					<dim>64</dim>
					<dim>1</dim>
					<dim>1</dim>
				</port>
			</input>
			<output>
				<port id="1" precision="FP32">
					<dim>1</dim>
					<dim>64</dim>
					<dim>1</dim>
					<dim>1</dim>
				</port>
			</output>
		</layer>
		<layer id="200" name="/backbone/stage4/unit3/conv3/conv/Conv" type="Add" version="opset1">
			<data auto_broadcast="numpy" />
			<input>
				<port id="0" precision="FP32">
					<dim>1</dim>
					<dim>64</dim>
					<dim>50</dim>
					<dim>62</dim>
				</port>
				<port id="1" precision="FP32">
					<dim>1</dim>
					<dim>64</dim>
					<dim>1</dim>
					<dim>1</dim>
				</port>
			</input>
			<output>
				<port id="2" precision="FP32" names="/backbone/stage4/unit3/conv3/conv/Conv_output_0">
					<dim>1</dim>
					<dim>64</dim>
					<dim>50</dim>
					<dim>62</dim>
				</port>
			</output>
		</layer>
		<layer id="201" name="/backbone/stage4/unit3/Add" type="Add" version="opset1">
			<data auto_broadcast="numpy" />
			<input>
				<port id="0" precision="FP32">
					<dim>1</dim>
					<dim>64</dim>
					<dim>50</dim>
					<dim>62</dim>
				</port>
				<port id="1" precision="FP32">
					<dim>1</dim>
					<dim>64</dim>
					<dim>50</dim>
					<dim>62</dim>
				</port>
			</input>
			<output>
				<port id="2" precision="FP32" names="/backbone/stage4/unit3/Add_output_0">
					<dim>1</dim>
					<dim>64</dim>
					<dim>50</dim>
					<dim>62</dim>
				</port>
			</output>
		</layer>
		<layer id="202" name="onnx::Conv_2573_compressed" type="Const" version="opset1">
			<data element_type="f16" shape="384, 64, 1, 1" offset="368784" size="49152" />
			<output>
				<port id="0" precision="FP16" names="onnx::Conv_2573">
					<dim>384</dim>
					<dim>64</dim>
					<dim>1</dim>
					<dim>1</dim>
				</port>
			</output>
		</layer>
		<layer id="203" name="onnx::Conv_2573" type="Convert" version="opset1">
			<data destination_type="f32" />
			<rt_info>
				<attribute name="decompression" version="0" />
			</rt_info>
			<input>
				<port id="0" precision="FP16">
					<dim>384</dim>
					<dim>64</dim>
					<dim>1</dim>
					<dim>1</dim>
				</port>
			</input>
			<output>
				<port id="1" precision="FP32">
					<dim>384</dim>
					<dim>64</dim>
					<dim>1</dim>
					<dim>1</dim>
				</port>
			</output>
		</layer>
		<layer id="204" name="/backbone/stage4/unit4/conv1/conv/Conv/WithoutBiases" type="Convolution" version="opset1">
			<data strides="1, 1" dilations="1, 1" pads_begin="0, 0" pads_end="0, 0" auto_pad="explicit" />
			<input>
				<port id="0" precision="FP32">
					<dim>1</dim>
					<dim>64</dim>
					<dim>50</dim>
					<dim>62</dim>
				</port>
				<port id="1" precision="FP32">
					<dim>384</dim>
					<dim>64</dim>
					<dim>1</dim>
					<dim>1</dim>
				</port>
			</input>
			<output>
				<port id="2" precision="FP32">
					<dim>1</dim>
					<dim>384</dim>
					<dim>50</dim>
					<dim>62</dim>
				</port>
			</output>
		</layer>
		<layer id="205" name="Reshape_63631_compressed" type="Const" version="opset1">
			<data element_type="f16" shape="1, 384, 1, 1" offset="417936" size="768" />
			<output>
				<port id="0" precision="FP16">
					<dim>1</dim>
					<dim>384</dim>
					<dim>1</dim>
					<dim>1</dim>
				</port>
			</output>
		</layer>
		<layer id="206" name="Reshape_63631" type="Convert" version="opset1">
			<data destination_type="f32" />
			<rt_info>
				<attribute name="decompression" version="0" />
			</rt_info>
			<input>
				<port id="0" precision="FP16">
					<dim>1</dim>
					<dim>384</dim>
					<dim>1</dim>
					<dim>1</dim>
				</port>
			</input>
			<output>
				<port id="1" precision="FP32">
					<dim>1</dim>
					<dim>384</dim>
					<dim>1</dim>
					<dim>1</dim>
				</port>
			</output>
		</layer>
		<layer id="207" name="/backbone/stage4/unit4/conv1/conv/Conv" type="Add" version="opset1">
			<data auto_broadcast="numpy" />
			<input>
				<port id="0" precision="FP32">
					<dim>1</dim>
					<dim>384</dim>
					<dim>50</dim>
					<dim>62</dim>
				</port>
				<port id="1" precision="FP32">
					<dim>1</dim>
					<dim>384</dim>
					<dim>1</dim>
					<dim>1</dim>
				</port>
			</input>
			<output>
				<port id="2" precision="FP32" names="/backbone/stage4/unit4/conv1/conv/Conv_output_0">
					<dim>1</dim>
					<dim>384</dim>
					<dim>50</dim>
					<dim>62</dim>
				</port>
			</output>
		</layer>
		<layer id="208" name="/backbone/stage4/unit4/conv1/activ/Clip" type="Clamp" version="opset1">
			<data min="0" max="6" />
			<input>
				<port id="0" precision="FP32">
					<dim>1</dim>
					<dim>384</dim>
					<dim>50</dim>
					<dim>62</dim>
				</port>
			</input>
			<output>
				<port id="1" precision="FP32" names="/backbone/stage4/unit4/conv1/activ/Clip_output_0">
					<dim>1</dim>
					<dim>384</dim>
					<dim>50</dim>
					<dim>62</dim>
				</port>
			</output>
		</layer>
		<layer id="209" name="Reshape_63644_compressed" type="Const" version="opset1">
			<data element_type="f16" shape="384, 1, 1, 3, 3" offset="418704" size="6912" />
			<output>
				<port id="0" precision="FP16">
					<dim>384</dim>
					<dim>1</dim>
					<dim>1</dim>
					<dim>3</dim>
					<dim>3</dim>
				</port>
			</output>
		</layer>
		<layer id="210" name="Reshape_63644" type="Convert" version="opset1">
			<data destination_type="f32" />
			<rt_info>
				<attribute name="decompression" version="0" />
			</rt_info>
			<input>
				<port id="0" precision="FP16">
					<dim>384</dim>
					<dim>1</dim>
					<dim>1</dim>
					<dim>3</dim>
					<dim>3</dim>
				</port>
			</input>
			<output>
				<port id="1" precision="FP32">
					<dim>384</dim>
					<dim>1</dim>
					<dim>1</dim>
					<dim>3</dim>
					<dim>3</dim>
				</port>
			</output>
		</layer>
		<layer id="211" name="/backbone/stage4/unit4/conv2/conv/Conv/WithoutBiases" type="GroupConvolution" version="opset1">
			<data strides="1, 1" pads_begin="1, 1" pads_end="1, 1" dilations="1, 1" auto_pad="explicit" />
			<input>
				<port id="0" precision="FP32">
					<dim>1</dim>
					<dim>384</dim>
					<dim>50</dim>
					<dim>62</dim>
				</port>
				<port id="1" precision="FP32">
					<dim>384</dim>
					<dim>1</dim>
					<dim>1</dim>
					<dim>3</dim>
					<dim>3</dim>
				</port>
			</input>
			<output>
				<port id="2" precision="FP32">
					<dim>1</dim>
					<dim>384</dim>
					<dim>50</dim>
					<dim>62</dim>
				</port>
			</output>
		</layer>
		<layer id="212" name="Reshape_63694_compressed" type="Const" version="opset1">
			<data element_type="f16" shape="1, 384, 1, 1" offset="425616" size="768" />
			<output>
				<port id="0" precision="FP16">
					<dim>1</dim>
					<dim>384</dim>
					<dim>1</dim>
					<dim>1</dim>
				</port>
			</output>
		</layer>
		<layer id="213" name="Reshape_63694" type="Convert" version="opset1">
			<data destination_type="f32" />
			<rt_info>
				<attribute name="decompression" version="0" />
			</rt_info>
			<input>
				<port id="0" precision="FP16">
					<dim>1</dim>
					<dim>384</dim>
					<dim>1</dim>
					<dim>1</dim>
				</port>
			</input>
			<output>
				<port id="1" precision="FP32">
					<dim>1</dim>
					<dim>384</dim>
					<dim>1</dim>
					<dim>1</dim>
				</port>
			</output>
		</layer>
		<layer id="214" name="/backbone/stage4/unit4/conv2/conv/Conv" type="Add" version="opset1">
			<data auto_broadcast="numpy" />
			<input>
				<port id="0" precision="FP32">
					<dim>1</dim>
					<dim>384</dim>
					<dim>50</dim>
					<dim>62</dim>
				</port>
				<port id="1" precision="FP32">
					<dim>1</dim>
					<dim>384</dim>
					<dim>1</dim>
					<dim>1</dim>
				</port>
			</input>
			<output>
				<port id="2" precision="FP32" names="/backbone/stage4/unit4/conv2/conv/Conv_output_0">
					<dim>1</dim>
					<dim>384</dim>
					<dim>50</dim>
					<dim>62</dim>
				</port>
			</output>
		</layer>
		<layer id="215" name="/backbone/stage4/unit4/conv2/activ/Clip" type="Clamp" version="opset1">
			<data min="0" max="6" />
			<input>
				<port id="0" precision="FP32">
					<dim>1</dim>
					<dim>384</dim>
					<dim>50</dim>
					<dim>62</dim>
				</port>
			</input>
			<output>
				<port id="1" precision="FP32" names="/backbone/stage4/unit4/conv2/activ/Clip_output_0">
					<dim>1</dim>
					<dim>384</dim>
					<dim>50</dim>
					<dim>62</dim>
				</port>
			</output>
		</layer>
		<layer id="216" name="onnx::Conv_2579_compressed" type="Const" version="opset1">
			<data element_type="f16" shape="64, 384, 1, 1" offset="426384" size="49152" />
			<output>
				<port id="0" precision="FP16" names="onnx::Conv_2579">
					<dim>64</dim>
					<dim>384</dim>
					<dim>1</dim>
					<dim>1</dim>
				</port>
			</output>
		</layer>
		<layer id="217" name="onnx::Conv_2579" type="Convert" version="opset1">
			<data destination_type="f32" />
			<rt_info>
				<attribute name="decompression" version="0" />
			</rt_info>
			<input>
				<port id="0" precision="FP16">
					<dim>64</dim>
					<dim>384</dim>
					<dim>1</dim>
					<dim>1</dim>
				</port>
			</input>
			<output>
				<port id="1" precision="FP32">
					<dim>64</dim>
					<dim>384</dim>
					<dim>1</dim>
					<dim>1</dim>
				</port>
			</output>
		</layer>
		<layer id="218" name="/backbone/stage4/unit4/conv3/conv/Conv/WithoutBiases" type="Convolution" version="opset1">
			<data strides="1, 1" dilations="1, 1" pads_begin="0, 0" pads_end="0, 0" auto_pad="explicit" />
			<input>
				<port id="0" precision="FP32">
					<dim>1</dim>
					<dim>384</dim>
					<dim>50</dim>
					<dim>62</dim>
				</port>
				<port id="1" precision="FP32">
					<dim>64</dim>
					<dim>384</dim>
					<dim>1</dim>
					<dim>1</dim>
				</port>
			</input>
			<output>
				<port id="2" precision="FP32">
					<dim>1</dim>
					<dim>64</dim>
					<dim>50</dim>
					<dim>62</dim>
				</port>
			</output>
		</layer>
		<layer id="219" name="Reshape_63711_compressed" type="Const" version="opset1">
			<data element_type="f16" shape="1, 64, 1, 1" offset="475536" size="128" />
			<output>
				<port id="0" precision="FP16">
					<dim>1</dim>
					<dim>64</dim>
					<dim>1</dim>
					<dim>1</dim>
				</port>
			</output>
		</layer>
		<layer id="220" name="Reshape_63711" type="Convert" version="opset1">
			<data destination_type="f32" />
			<rt_info>
				<attribute name="decompression" version="0" />
			</rt_info>
			<input>
				<port id="0" precision="FP16">
					<dim>1</dim>
					<dim>64</dim>
					<dim>1</dim>
					<dim>1</dim>
				</port>
			</input>
			<output>
				<port id="1" precision="FP32">
					<dim>1</dim>
					<dim>64</dim>
					<dim>1</dim>
					<dim>1</dim>
				</port>
			</output>
		</layer>
		<layer id="221" name="/backbone/stage4/unit4/conv3/conv/Conv" type="Add" version="opset1">
			<data auto_broadcast="numpy" />
			<input>
				<port id="0" precision="FP32">
					<dim>1</dim>
					<dim>64</dim>
					<dim>50</dim>
					<dim>62</dim>
				</port>
				<port id="1" precision="FP32">
					<dim>1</dim>
					<dim>64</dim>
					<dim>1</dim>
					<dim>1</dim>
				</port>
			</input>
			<output>
				<port id="2" precision="FP32" names="/backbone/stage4/unit4/conv3/conv/Conv_output_0">
					<dim>1</dim>
					<dim>64</dim>
					<dim>50</dim>
					<dim>62</dim>
				</port>
			</output>
		</layer>
		<layer id="222" name="/backbone/stage4/unit4/Add" type="Add" version="opset1">
			<data auto_broadcast="numpy" />
			<input>
				<port id="0" precision="FP32">
					<dim>1</dim>
					<dim>64</dim>
					<dim>50</dim>
					<dim>62</dim>
				</port>
				<port id="1" precision="FP32">
					<dim>1</dim>
					<dim>64</dim>
					<dim>50</dim>
					<dim>62</dim>
				</port>
			</input>
			<output>
				<port id="2" precision="FP32" names="/backbone/stage4/unit4/Add_output_0">
					<dim>1</dim>
					<dim>64</dim>
					<dim>50</dim>
					<dim>62</dim>
				</port>
			</output>
		</layer>
		<layer id="223" name="onnx::Conv_2582_compressed" type="Const" version="opset1">
			<data element_type="f16" shape="384, 64, 1, 1" offset="475664" size="49152" />
			<output>
				<port id="0" precision="FP16" names="onnx::Conv_2582">
					<dim>384</dim>
					<dim>64</dim>
					<dim>1</dim>
					<dim>1</dim>
				</port>
			</output>
		</layer>
		<layer id="224" name="onnx::Conv_2582" type="Convert" version="opset1">
			<data destination_type="f32" />
			<rt_info>
				<attribute name="decompression" version="0" />
			</rt_info>
			<input>
				<port id="0" precision="FP16">
					<dim>384</dim>
					<dim>64</dim>
					<dim>1</dim>
					<dim>1</dim>
				</port>
			</input>
			<output>
				<port id="1" precision="FP32">
					<dim>384</dim>
					<dim>64</dim>
					<dim>1</dim>
					<dim>1</dim>
				</port>
			</output>
		</layer>
		<layer id="225" name="/backbone/stage4/unit5/conv1/conv/Conv/WithoutBiases" type="Convolution" version="opset1">
			<data strides="1, 1" dilations="1, 1" pads_begin="0, 0" pads_end="0, 0" auto_pad="explicit" />
			<input>
				<port id="0" precision="FP32">
					<dim>1</dim>
					<dim>64</dim>
					<dim>50</dim>
					<dim>62</dim>
				</port>
				<port id="1" precision="FP32">
					<dim>384</dim>
					<dim>64</dim>
					<dim>1</dim>
					<dim>1</dim>
				</port>
			</input>
			<output>
				<port id="2" precision="FP32">
					<dim>1</dim>
					<dim>384</dim>
					<dim>50</dim>
					<dim>62</dim>
				</port>
			</output>
		</layer>
		<layer id="226" name="Reshape_63725_compressed" type="Const" version="opset1">
			<data element_type="f16" shape="1, 384, 1, 1" offset="524816" size="768" />
			<output>
				<port id="0" precision="FP16">
					<dim>1</dim>
					<dim>384</dim>
					<dim>1</dim>
					<dim>1</dim>
				</port>
			</output>
		</layer>
		<layer id="227" name="Reshape_63725" type="Convert" version="opset1">
			<data destination_type="f32" />
			<rt_info>
				<attribute name="decompression" version="0" />
			</rt_info>
			<input>
				<port id="0" precision="FP16">
					<dim>1</dim>
					<dim>384</dim>
					<dim>1</dim>
					<dim>1</dim>
				</port>
			</input>
			<output>
				<port id="1" precision="FP32">
					<dim>1</dim>
					<dim>384</dim>
					<dim>1</dim>
					<dim>1</dim>
				</port>
			</output>
		</layer>
		<layer id="228" name="/backbone/stage4/unit5/conv1/conv/Conv" type="Add" version="opset1">
			<data auto_broadcast="numpy" />
			<input>
				<port id="0" precision="FP32">
					<dim>1</dim>
					<dim>384</dim>
					<dim>50</dim>
					<dim>62</dim>
				</port>
				<port id="1" precision="FP32">
					<dim>1</dim>
					<dim>384</dim>
					<dim>1</dim>
					<dim>1</dim>
				</port>
			</input>
			<output>
				<port id="2" precision="FP32" names="/backbone/stage4/unit5/conv1/conv/Conv_output_0">
					<dim>1</dim>
					<dim>384</dim>
					<dim>50</dim>
					<dim>62</dim>
				</port>
			</output>
		</layer>
		<layer id="229" name="/backbone/stage4/unit5/conv1/activ/Clip" type="Clamp" version="opset1">
			<data min="0" max="6" />
			<input>
				<port id="0" precision="FP32">
					<dim>1</dim>
					<dim>384</dim>
					<dim>50</dim>
					<dim>62</dim>
				</port>
			</input>
			<output>
				<port id="1" precision="FP32" names="/backbone/stage4/unit5/conv1/activ/Clip_output_0">
					<dim>1</dim>
					<dim>384</dim>
					<dim>50</dim>
					<dim>62</dim>
				</port>
			</output>
		</layer>
		<layer id="230" name="Reshape_63738_compressed" type="Const" version="opset1">
			<data element_type="f16" shape="384, 1, 1, 3, 3" offset="525584" size="6912" />
			<output>
				<port id="0" precision="FP16">
					<dim>384</dim>
					<dim>1</dim>
					<dim>1</dim>
					<dim>3</dim>
					<dim>3</dim>
				</port>
			</output>
		</layer>
		<layer id="231" name="Reshape_63738" type="Convert" version="opset1">
			<data destination_type="f32" />
			<rt_info>
				<attribute name="decompression" version="0" />
			</rt_info>
			<input>
				<port id="0" precision="FP16">
					<dim>384</dim>
					<dim>1</dim>
					<dim>1</dim>
					<dim>3</dim>
					<dim>3</dim>
				</port>
			</input>
			<output>
				<port id="1" precision="FP32">
					<dim>384</dim>
					<dim>1</dim>
					<dim>1</dim>
					<dim>3</dim>
					<dim>3</dim>
				</port>
			</output>
		</layer>
		<layer id="232" name="/backbone/stage4/unit5/conv2/conv/Conv/WithoutBiases" type="GroupConvolution" version="opset1">
			<data strides="1, 1" pads_begin="1, 1" pads_end="1, 1" dilations="1, 1" auto_pad="explicit" />
			<input>
				<port id="0" precision="FP32">
					<dim>1</dim>
					<dim>384</dim>
					<dim>50</dim>
					<dim>62</dim>
				</port>
				<port id="1" precision="FP32">
					<dim>384</dim>
					<dim>1</dim>
					<dim>1</dim>
					<dim>3</dim>
					<dim>3</dim>
				</port>
			</input>
			<output>
				<port id="2" precision="FP32">
					<dim>1</dim>
					<dim>384</dim>
					<dim>50</dim>
					<dim>62</dim>
				</port>
			</output>
		</layer>
		<layer id="233" name="Reshape_63788_compressed" type="Const" version="opset1">
			<data element_type="f16" shape="1, 384, 1, 1" offset="532496" size="768" />
			<output>
				<port id="0" precision="FP16">
					<dim>1</dim>
					<dim>384</dim>
					<dim>1</dim>
					<dim>1</dim>
				</port>
			</output>
		</layer>
		<layer id="234" name="Reshape_63788" type="Convert" version="opset1">
			<data destination_type="f32" />
			<rt_info>
				<attribute name="decompression" version="0" />
			</rt_info>
			<input>
				<port id="0" precision="FP16">
					<dim>1</dim>
					<dim>384</dim>
					<dim>1</dim>
					<dim>1</dim>
				</port>
			</input>
			<output>
				<port id="1" precision="FP32">
					<dim>1</dim>
					<dim>384</dim>
					<dim>1</dim>
					<dim>1</dim>
				</port>
			</output>
		</layer>
		<layer id="235" name="/backbone/stage4/unit5/conv2/conv/Conv" type="Add" version="opset1">
			<data auto_broadcast="numpy" />
			<input>
				<port id="0" precision="FP32">
					<dim>1</dim>
					<dim>384</dim>
					<dim>50</dim>
					<dim>62</dim>
				</port>
				<port id="1" precision="FP32">
					<dim>1</dim>
					<dim>384</dim>
					<dim>1</dim>
					<dim>1</dim>
				</port>
			</input>
			<output>
				<port id="2" precision="FP32" names="/backbone/stage4/unit5/conv2/conv/Conv_output_0">
					<dim>1</dim>
					<dim>384</dim>
					<dim>50</dim>
					<dim>62</dim>
				</port>
			</output>
		</layer>
		<layer id="236" name="/backbone/stage4/unit5/conv2/activ/Clip" type="Clamp" version="opset1">
			<data min="0" max="6" />
			<input>
				<port id="0" precision="FP32">
					<dim>1</dim>
					<dim>384</dim>
					<dim>50</dim>
					<dim>62</dim>
				</port>
			</input>
			<output>
				<port id="1" precision="FP32" names="/backbone/stage4/unit5/conv2/activ/Clip_output_0">
					<dim>1</dim>
					<dim>384</dim>
					<dim>50</dim>
					<dim>62</dim>
				</port>
			</output>
		</layer>
		<layer id="237" name="onnx::Conv_2588_compressed" type="Const" version="opset1">
			<data element_type="f16" shape="96, 384, 1, 1" offset="533264" size="73728" />
			<output>
				<port id="0" precision="FP16" names="onnx::Conv_2588">
					<dim>96</dim>
					<dim>384</dim>
					<dim>1</dim>
					<dim>1</dim>
				</port>
			</output>
		</layer>
		<layer id="238" name="onnx::Conv_2588" type="Convert" version="opset1">
			<data destination_type="f32" />
			<rt_info>
				<attribute name="decompression" version="0" />
			</rt_info>
			<input>
				<port id="0" precision="FP16">
					<dim>96</dim>
					<dim>384</dim>
					<dim>1</dim>
					<dim>1</dim>
				</port>
			</input>
			<output>
				<port id="1" precision="FP32">
					<dim>96</dim>
					<dim>384</dim>
					<dim>1</dim>
					<dim>1</dim>
				</port>
			</output>
		</layer>
		<layer id="239" name="/backbone/stage4/unit5/conv3/conv/Conv/WithoutBiases" type="Convolution" version="opset1">
			<data strides="1, 1" dilations="1, 1" pads_begin="0, 0" pads_end="0, 0" auto_pad="explicit" />
			<input>
				<port id="0" precision="FP32">
					<dim>1</dim>
					<dim>384</dim>
					<dim>50</dim>
					<dim>62</dim>
				</port>
				<port id="1" precision="FP32">
					<dim>96</dim>
					<dim>384</dim>
					<dim>1</dim>
					<dim>1</dim>
				</port>
			</input>
			<output>
				<port id="2" precision="FP32">
					<dim>1</dim>
					<dim>96</dim>
					<dim>50</dim>
					<dim>62</dim>
				</port>
			</output>
		</layer>
		<layer id="240" name="Reshape_63805_compressed" type="Const" version="opset1">
			<data element_type="f16" shape="1, 96, 1, 1" offset="606992" size="192" />
			<output>
				<port id="0" precision="FP16">
					<dim>1</dim>
					<dim>96</dim>
					<dim>1</dim>
					<dim>1</dim>
				</port>
			</output>
		</layer>
		<layer id="241" name="Reshape_63805" type="Convert" version="opset1">
			<data destination_type="f32" />
			<rt_info>
				<attribute name="decompression" version="0" />
			</rt_info>
			<input>
				<port id="0" precision="FP16">
					<dim>1</dim>
					<dim>96</dim>
					<dim>1</dim>
					<dim>1</dim>
				</port>
			</input>
			<output>
				<port id="1" precision="FP32">
					<dim>1</dim>
					<dim>96</dim>
					<dim>1</dim>
					<dim>1</dim>
				</port>
			</output>
		</layer>
		<layer id="242" name="/backbone/stage4/unit5/conv3/conv/Conv" type="Add" version="opset1">
			<data auto_broadcast="numpy" />
			<input>
				<port id="0" precision="FP32">
					<dim>1</dim>
					<dim>96</dim>
					<dim>50</dim>
					<dim>62</dim>
				</port>
				<port id="1" precision="FP32">
					<dim>1</dim>
					<dim>96</dim>
					<dim>1</dim>
					<dim>1</dim>
				</port>
			</input>
			<output>
				<port id="2" precision="FP32" names="/backbone/stage4/unit5/conv3/conv/Conv_output_0">
					<dim>1</dim>
					<dim>96</dim>
					<dim>50</dim>
					<dim>62</dim>
				</port>
			</output>
		</layer>
		<layer id="243" name="onnx::Conv_2591_compressed" type="Const" version="opset1">
			<data element_type="f16" shape="576, 96, 1, 1" offset="607184" size="110592" />
			<output>
				<port id="0" precision="FP16" names="onnx::Conv_2591">
					<dim>576</dim>
					<dim>96</dim>
					<dim>1</dim>
					<dim>1</dim>
				</port>
			</output>
		</layer>
		<layer id="244" name="onnx::Conv_2591" type="Convert" version="opset1">
			<data destination_type="f32" />
			<rt_info>
				<attribute name="decompression" version="0" />
			</rt_info>
			<input>
				<port id="0" precision="FP16">
					<dim>576</dim>
					<dim>96</dim>
					<dim>1</dim>
					<dim>1</dim>
				</port>
			</input>
			<output>
				<port id="1" precision="FP32">
					<dim>576</dim>
					<dim>96</dim>
					<dim>1</dim>
					<dim>1</dim>
				</port>
			</output>
		</layer>
		<layer id="245" name="/backbone/stage4/unit6/conv1/conv/Conv/WithoutBiases" type="Convolution" version="opset1">
			<data strides="1, 1" dilations="1, 1" pads_begin="0, 0" pads_end="0, 0" auto_pad="explicit" />
			<input>
				<port id="0" precision="FP32">
					<dim>1</dim>
					<dim>96</dim>
					<dim>50</dim>
					<dim>62</dim>
				</port>
				<port id="1" precision="FP32">
					<dim>576</dim>
					<dim>96</dim>
					<dim>1</dim>
					<dim>1</dim>
				</port>
			</input>
			<output>
				<port id="2" precision="FP32">
					<dim>1</dim>
					<dim>576</dim>
					<dim>50</dim>
					<dim>62</dim>
				</port>
			</output>
		</layer>
		<layer id="246" name="Reshape_63818_compressed" type="Const" version="opset1">
			<data element_type="f16" shape="1, 576, 1, 1" offset="717776" size="1152" />
			<output>
				<port id="0" precision="FP16">
					<dim>1</dim>
					<dim>576</dim>
					<dim>1</dim>
					<dim>1</dim>
				</port>
			</output>
		</layer>
		<layer id="247" name="Reshape_63818" type="Convert" version="opset1">
			<data destination_type="f32" />
			<rt_info>
				<attribute name="decompression" version="0" />
			</rt_info>
			<input>
				<port id="0" precision="FP16">
					<dim>1</dim>
					<dim>576</dim>
					<dim>1</dim>
					<dim>1</dim>
				</port>
			</input>
			<output>
				<port id="1" precision="FP32">
					<dim>1</dim>
					<dim>576</dim>
					<dim>1</dim>
					<dim>1</dim>
				</port>
			</output>
		</layer>
		<layer id="248" name="/backbone/stage4/unit6/conv1/conv/Conv" type="Add" version="opset1">
			<data auto_broadcast="numpy" />
			<input>
				<port id="0" precision="FP32">
					<dim>1</dim>
					<dim>576</dim>
					<dim>50</dim>
					<dim>62</dim>
				</port>
				<port id="1" precision="FP32">
					<dim>1</dim>
					<dim>576</dim>
					<dim>1</dim>
					<dim>1</dim>
				</port>
			</input>
			<output>
				<port id="2" precision="FP32" names="/backbone/stage4/unit6/conv1/conv/Conv_output_0">
					<dim>1</dim>
					<dim>576</dim>
					<dim>50</dim>
					<dim>62</dim>
				</port>
			</output>
		</layer>
		<layer id="249" name="/backbone/stage4/unit6/conv1/activ/Clip" type="Clamp" version="opset1">
			<data min="0" max="6" />
			<input>
				<port id="0" precision="FP32">
					<dim>1</dim>
					<dim>576</dim>
					<dim>50</dim>
					<dim>62</dim>
				</port>
			</input>
			<output>
				<port id="1" precision="FP32" names="/backbone/stage4/unit6/conv1/activ/Clip_output_0">
					<dim>1</dim>
					<dim>576</dim>
					<dim>50</dim>
					<dim>62</dim>
				</port>
			</output>
		</layer>
		<layer id="250" name="Reshape_63831_compressed" type="Const" version="opset1">
			<data element_type="f16" shape="576, 1, 1, 3, 3" offset="718928" size="10368" />
			<output>
				<port id="0" precision="FP16">
					<dim>576</dim>
					<dim>1</dim>
					<dim>1</dim>
					<dim>3</dim>
					<dim>3</dim>
				</port>
			</output>
		</layer>
		<layer id="251" name="Reshape_63831" type="Convert" version="opset1">
			<data destination_type="f32" />
			<rt_info>
				<attribute name="decompression" version="0" />
			</rt_info>
			<input>
				<port id="0" precision="FP16">
					<dim>576</dim>
					<dim>1</dim>
					<dim>1</dim>
					<dim>3</dim>
					<dim>3</dim>
				</port>
			</input>
			<output>
				<port id="1" precision="FP32">
					<dim>576</dim>
					<dim>1</dim>
					<dim>1</dim>
					<dim>3</dim>
					<dim>3</dim>
				</port>
			</output>
		</layer>
		<layer id="252" name="/backbone/stage4/unit6/conv2/conv/Conv/WithoutBiases" type="GroupConvolution" version="opset1">
			<data strides="1, 1" pads_begin="1, 1" pads_end="1, 1" dilations="1, 1" auto_pad="explicit" />
			<input>
				<port id="0" precision="FP32">
					<dim>1</dim>
					<dim>576</dim>
					<dim>50</dim>
					<dim>62</dim>
				</port>
				<port id="1" precision="FP32">
					<dim>576</dim>
					<dim>1</dim>
					<dim>1</dim>
					<dim>3</dim>
					<dim>3</dim>
				</port>
			</input>
			<output>
				<port id="2" precision="FP32">
					<dim>1</dim>
					<dim>576</dim>
					<dim>50</dim>
					<dim>62</dim>
				</port>
			</output>
		</layer>
		<layer id="253" name="Reshape_63881_compressed" type="Const" version="opset1">
			<data element_type="f16" shape="1, 576, 1, 1" offset="729296" size="1152" />
			<output>
				<port id="0" precision="FP16">
					<dim>1</dim>
					<dim>576</dim>
					<dim>1</dim>
					<dim>1</dim>
				</port>
			</output>
		</layer>
		<layer id="254" name="Reshape_63881" type="Convert" version="opset1">
			<data destination_type="f32" />
			<rt_info>
				<attribute name="decompression" version="0" />
			</rt_info>
			<input>
				<port id="0" precision="FP16">
					<dim>1</dim>
					<dim>576</dim>
					<dim>1</dim>
					<dim>1</dim>
				</port>
			</input>
			<output>
				<port id="1" precision="FP32">
					<dim>1</dim>
					<dim>576</dim>
					<dim>1</dim>
					<dim>1</dim>
				</port>
			</output>
		</layer>
		<layer id="255" name="/backbone/stage4/unit6/conv2/conv/Conv" type="Add" version="opset1">
			<data auto_broadcast="numpy" />
			<input>
				<port id="0" precision="FP32">
					<dim>1</dim>
					<dim>576</dim>
					<dim>50</dim>
					<dim>62</dim>
				</port>
				<port id="1" precision="FP32">
					<dim>1</dim>
					<dim>576</dim>
					<dim>1</dim>
					<dim>1</dim>
				</port>
			</input>
			<output>
				<port id="2" precision="FP32" names="/backbone/stage4/unit6/conv2/conv/Conv_output_0">
					<dim>1</dim>
					<dim>576</dim>
					<dim>50</dim>
					<dim>62</dim>
				</port>
			</output>
		</layer>
		<layer id="256" name="/backbone/stage4/unit6/conv2/activ/Clip" type="Clamp" version="opset1">
			<data min="0" max="6" />
			<input>
				<port id="0" precision="FP32">
					<dim>1</dim>
					<dim>576</dim>
					<dim>50</dim>
					<dim>62</dim>
				</port>
			</input>
			<output>
				<port id="1" precision="FP32" names="/backbone/stage4/unit6/conv2/activ/Clip_output_0">
					<dim>1</dim>
					<dim>576</dim>
					<dim>50</dim>
					<dim>62</dim>
				</port>
			</output>
		</layer>
		<layer id="257" name="onnx::Conv_2597_compressed" type="Const" version="opset1">
			<data element_type="f16" shape="96, 576, 1, 1" offset="730448" size="110592" />
			<output>
				<port id="0" precision="FP16" names="onnx::Conv_2597">
					<dim>96</dim>
					<dim>576</dim>
					<dim>1</dim>
					<dim>1</dim>
				</port>
			</output>
		</layer>
		<layer id="258" name="onnx::Conv_2597" type="Convert" version="opset1">
			<data destination_type="f32" />
			<rt_info>
				<attribute name="decompression" version="0" />
			</rt_info>
			<input>
				<port id="0" precision="FP16">
					<dim>96</dim>
					<dim>576</dim>
					<dim>1</dim>
					<dim>1</dim>
				</port>
			</input>
			<output>
				<port id="1" precision="FP32">
					<dim>96</dim>
					<dim>576</dim>
					<dim>1</dim>
					<dim>1</dim>
				</port>
			</output>
		</layer>
		<layer id="259" name="/backbone/stage4/unit6/conv3/conv/Conv/WithoutBiases" type="Convolution" version="opset1">
			<data strides="1, 1" dilations="1, 1" pads_begin="0, 0" pads_end="0, 0" auto_pad="explicit" />
			<input>
				<port id="0" precision="FP32">
					<dim>1</dim>
					<dim>576</dim>
					<dim>50</dim>
					<dim>62</dim>
				</port>
				<port id="1" precision="FP32">
					<dim>96</dim>
					<dim>576</dim>
					<dim>1</dim>
					<dim>1</dim>
				</port>
			</input>
			<output>
				<port id="2" precision="FP32">
					<dim>1</dim>
					<dim>96</dim>
					<dim>50</dim>
					<dim>62</dim>
				</port>
			</output>
		</layer>
		<layer id="260" name="Reshape_63898_compressed" type="Const" version="opset1">
			<data element_type="f16" shape="1, 96, 1, 1" offset="841040" size="192" />
			<output>
				<port id="0" precision="FP16">
					<dim>1</dim>
					<dim>96</dim>
					<dim>1</dim>
					<dim>1</dim>
				</port>
			</output>
		</layer>
		<layer id="261" name="Reshape_63898" type="Convert" version="opset1">
			<data destination_type="f32" />
			<rt_info>
				<attribute name="decompression" version="0" />
			</rt_info>
			<input>
				<port id="0" precision="FP16">
					<dim>1</dim>
					<dim>96</dim>
					<dim>1</dim>
					<dim>1</dim>
				</port>
			</input>
			<output>
				<port id="1" precision="FP32">
					<dim>1</dim>
					<dim>96</dim>
					<dim>1</dim>
					<dim>1</dim>
				</port>
			</output>
		</layer>
		<layer id="262" name="/backbone/stage4/unit6/conv3/conv/Conv" type="Add" version="opset1">
			<data auto_broadcast="numpy" />
			<input>
				<port id="0" precision="FP32">
					<dim>1</dim>
					<dim>96</dim>
					<dim>50</dim>
					<dim>62</dim>
				</port>
				<port id="1" precision="FP32">
					<dim>1</dim>
					<dim>96</dim>
					<dim>1</dim>
					<dim>1</dim>
				</port>
			</input>
			<output>
				<port id="2" precision="FP32" names="/backbone/stage4/unit6/conv3/conv/Conv_output_0">
					<dim>1</dim>
					<dim>96</dim>
					<dim>50</dim>
					<dim>62</dim>
				</port>
			</output>
		</layer>
		<layer id="263" name="/backbone/stage4/unit6/Add" type="Add" version="opset1">
			<data auto_broadcast="numpy" />
			<input>
				<port id="0" precision="FP32">
					<dim>1</dim>
					<dim>96</dim>
					<dim>50</dim>
					<dim>62</dim>
				</port>
				<port id="1" precision="FP32">
					<dim>1</dim>
					<dim>96</dim>
					<dim>50</dim>
					<dim>62</dim>
				</port>
			</input>
			<output>
				<port id="2" precision="FP32" names="/backbone/stage4/unit6/Add_output_0">
					<dim>1</dim>
					<dim>96</dim>
					<dim>50</dim>
					<dim>62</dim>
				</port>
			</output>
		</layer>
		<layer id="264" name="onnx::Conv_2600_compressed" type="Const" version="opset1">
			<data element_type="f16" shape="576, 96, 1, 1" offset="841232" size="110592" />
			<output>
				<port id="0" precision="FP16" names="onnx::Conv_2600">
					<dim>576</dim>
					<dim>96</dim>
					<dim>1</dim>
					<dim>1</dim>
				</port>
			</output>
		</layer>
		<layer id="265" name="onnx::Conv_2600" type="Convert" version="opset1">
			<data destination_type="f32" />
			<rt_info>
				<attribute name="decompression" version="0" />
			</rt_info>
			<input>
				<port id="0" precision="FP16">
					<dim>576</dim>
					<dim>96</dim>
					<dim>1</dim>
					<dim>1</dim>
				</port>
			</input>
			<output>
				<port id="1" precision="FP32">
					<dim>576</dim>
					<dim>96</dim>
					<dim>1</dim>
					<dim>1</dim>
				</port>
			</output>
		</layer>
		<layer id="266" name="/backbone/stage4/unit7/conv1/conv/Conv/WithoutBiases" type="Convolution" version="opset1">
			<data strides="1, 1" dilations="1, 1" pads_begin="0, 0" pads_end="0, 0" auto_pad="explicit" />
			<input>
				<port id="0" precision="FP32">
					<dim>1</dim>
					<dim>96</dim>
					<dim>50</dim>
					<dim>62</dim>
				</port>
				<port id="1" precision="FP32">
					<dim>576</dim>
					<dim>96</dim>
					<dim>1</dim>
					<dim>1</dim>
				</port>
			</input>
			<output>
				<port id="2" precision="FP32">
					<dim>1</dim>
					<dim>576</dim>
					<dim>50</dim>
					<dim>62</dim>
				</port>
			</output>
		</layer>
		<layer id="267" name="Reshape_63912_compressed" type="Const" version="opset1">
			<data element_type="f16" shape="1, 576, 1, 1" offset="951824" size="1152" />
			<output>
				<port id="0" precision="FP16">
					<dim>1</dim>
					<dim>576</dim>
					<dim>1</dim>
					<dim>1</dim>
				</port>
			</output>
		</layer>
		<layer id="268" name="Reshape_63912" type="Convert" version="opset1">
			<data destination_type="f32" />
			<rt_info>
				<attribute name="decompression" version="0" />
			</rt_info>
			<input>
				<port id="0" precision="FP16">
					<dim>1</dim>
					<dim>576</dim>
					<dim>1</dim>
					<dim>1</dim>
				</port>
			</input>
			<output>
				<port id="1" precision="FP32">
					<dim>1</dim>
					<dim>576</dim>
					<dim>1</dim>
					<dim>1</dim>
				</port>
			</output>
		</layer>
		<layer id="269" name="/backbone/stage4/unit7/conv1/conv/Conv" type="Add" version="opset1">
			<data auto_broadcast="numpy" />
			<input>
				<port id="0" precision="FP32">
					<dim>1</dim>
					<dim>576</dim>
					<dim>50</dim>
					<dim>62</dim>
				</port>
				<port id="1" precision="FP32">
					<dim>1</dim>
					<dim>576</dim>
					<dim>1</dim>
					<dim>1</dim>
				</port>
			</input>
			<output>
				<port id="2" precision="FP32" names="/backbone/stage4/unit7/conv1/conv/Conv_output_0">
					<dim>1</dim>
					<dim>576</dim>
					<dim>50</dim>
					<dim>62</dim>
				</port>
			</output>
		</layer>
		<layer id="270" name="/backbone/stage4/unit7/conv1/activ/Clip" type="Clamp" version="opset1">
			<data min="0" max="6" />
			<input>
				<port id="0" precision="FP32">
					<dim>1</dim>
					<dim>576</dim>
					<dim>50</dim>
					<dim>62</dim>
				</port>
			</input>
			<output>
				<port id="1" precision="FP32" names="/backbone/stage4/unit7/conv1/activ/Clip_output_0">
					<dim>1</dim>
					<dim>576</dim>
					<dim>50</dim>
					<dim>62</dim>
				</port>
			</output>
		</layer>
		<layer id="271" name="Reshape_63925_compressed" type="Const" version="opset1">
			<data element_type="f16" shape="576, 1, 1, 3, 3" offset="952976" size="10368" />
			<output>
				<port id="0" precision="FP16">
					<dim>576</dim>
					<dim>1</dim>
					<dim>1</dim>
					<dim>3</dim>
					<dim>3</dim>
				</port>
			</output>
		</layer>
		<layer id="272" name="Reshape_63925" type="Convert" version="opset1">
			<data destination_type="f32" />
			<rt_info>
				<attribute name="decompression" version="0" />
			</rt_info>
			<input>
				<port id="0" precision="FP16">
					<dim>576</dim>
					<dim>1</dim>
					<dim>1</dim>
					<dim>3</dim>
					<dim>3</dim>
				</port>
			</input>
			<output>
				<port id="1" precision="FP32">
					<dim>576</dim>
					<dim>1</dim>
					<dim>1</dim>
					<dim>3</dim>
					<dim>3</dim>
				</port>
			</output>
		</layer>
		<layer id="273" name="/backbone/stage4/unit7/conv2/conv/Conv/WithoutBiases" type="GroupConvolution" version="opset1">
			<data strides="1, 1" pads_begin="1, 1" pads_end="1, 1" dilations="1, 1" auto_pad="explicit" />
			<input>
				<port id="0" precision="FP32">
					<dim>1</dim>
					<dim>576</dim>
					<dim>50</dim>
					<dim>62</dim>
				</port>
				<port id="1" precision="FP32">
					<dim>576</dim>
					<dim>1</dim>
					<dim>1</dim>
					<dim>3</dim>
					<dim>3</dim>
				</port>
			</input>
			<output>
				<port id="2" precision="FP32">
					<dim>1</dim>
					<dim>576</dim>
					<dim>50</dim>
					<dim>62</dim>
				</port>
			</output>
		</layer>
		<layer id="274" name="Reshape_63975_compressed" type="Const" version="opset1">
			<data element_type="f16" shape="1, 576, 1, 1" offset="963344" size="1152" />
			<output>
				<port id="0" precision="FP16">
					<dim>1</dim>
					<dim>576</dim>
					<dim>1</dim>
					<dim>1</dim>
				</port>
			</output>
		</layer>
		<layer id="275" name="Reshape_63975" type="Convert" version="opset1">
			<data destination_type="f32" />
			<rt_info>
				<attribute name="decompression" version="0" />
			</rt_info>
			<input>
				<port id="0" precision="FP16">
					<dim>1</dim>
					<dim>576</dim>
					<dim>1</dim>
					<dim>1</dim>
				</port>
			</input>
			<output>
				<port id="1" precision="FP32">
					<dim>1</dim>
					<dim>576</dim>
					<dim>1</dim>
					<dim>1</dim>
				</port>
			</output>
		</layer>
		<layer id="276" name="/backbone/stage4/unit7/conv2/conv/Conv" type="Add" version="opset1">
			<data auto_broadcast="numpy" />
			<input>
				<port id="0" precision="FP32">
					<dim>1</dim>
					<dim>576</dim>
					<dim>50</dim>
					<dim>62</dim>
				</port>
				<port id="1" precision="FP32">
					<dim>1</dim>
					<dim>576</dim>
					<dim>1</dim>
					<dim>1</dim>
				</port>
			</input>
			<output>
				<port id="2" precision="FP32" names="/backbone/stage4/unit7/conv2/conv/Conv_output_0">
					<dim>1</dim>
					<dim>576</dim>
					<dim>50</dim>
					<dim>62</dim>
				</port>
			</output>
		</layer>
		<layer id="277" name="/backbone/stage4/unit7/conv2/activ/Clip" type="Clamp" version="opset1">
			<data min="0" max="6" />
			<input>
				<port id="0" precision="FP32">
					<dim>1</dim>
					<dim>576</dim>
					<dim>50</dim>
					<dim>62</dim>
				</port>
			</input>
			<output>
				<port id="1" precision="FP32" names="/backbone/stage4/unit7/conv2/activ/Clip_output_0">
					<dim>1</dim>
					<dim>576</dim>
					<dim>50</dim>
					<dim>62</dim>
				</port>
			</output>
		</layer>
		<layer id="278" name="onnx::Conv_2606_compressed" type="Const" version="opset1">
			<data element_type="f16" shape="96, 576, 1, 1" offset="964496" size="110592" />
			<output>
				<port id="0" precision="FP16" names="onnx::Conv_2606">
					<dim>96</dim>
					<dim>576</dim>
					<dim>1</dim>
					<dim>1</dim>
				</port>
			</output>
		</layer>
		<layer id="279" name="onnx::Conv_2606" type="Convert" version="opset1">
			<data destination_type="f32" />
			<rt_info>
				<attribute name="decompression" version="0" />
			</rt_info>
			<input>
				<port id="0" precision="FP16">
					<dim>96</dim>
					<dim>576</dim>
					<dim>1</dim>
					<dim>1</dim>
				</port>
			</input>
			<output>
				<port id="1" precision="FP32">
					<dim>96</dim>
					<dim>576</dim>
					<dim>1</dim>
					<dim>1</dim>
				</port>
			</output>
		</layer>
		<layer id="280" name="/backbone/stage4/unit7/conv3/conv/Conv/WithoutBiases" type="Convolution" version="opset1">
			<data strides="1, 1" dilations="1, 1" pads_begin="0, 0" pads_end="0, 0" auto_pad="explicit" />
			<input>
				<port id="0" precision="FP32">
					<dim>1</dim>
					<dim>576</dim>
					<dim>50</dim>
					<dim>62</dim>
				</port>
				<port id="1" precision="FP32">
					<dim>96</dim>
					<dim>576</dim>
					<dim>1</dim>
					<dim>1</dim>
				</port>
			</input>
			<output>
				<port id="2" precision="FP32">
					<dim>1</dim>
					<dim>96</dim>
					<dim>50</dim>
					<dim>62</dim>
				</port>
			</output>
		</layer>
		<layer id="281" name="Reshape_63992_compressed" type="Const" version="opset1">
			<data element_type="f16" shape="1, 96, 1, 1" offset="1075088" size="192" />
			<output>
				<port id="0" precision="FP16">
					<dim>1</dim>
					<dim>96</dim>
					<dim>1</dim>
					<dim>1</dim>
				</port>
			</output>
		</layer>
		<layer id="282" name="Reshape_63992" type="Convert" version="opset1">
			<data destination_type="f32" />
			<rt_info>
				<attribute name="decompression" version="0" />
			</rt_info>
			<input>
				<port id="0" precision="FP16">
					<dim>1</dim>
					<dim>96</dim>
					<dim>1</dim>
					<dim>1</dim>
				</port>
			</input>
			<output>
				<port id="1" precision="FP32">
					<dim>1</dim>
					<dim>96</dim>
					<dim>1</dim>
					<dim>1</dim>
				</port>
			</output>
		</layer>
		<layer id="283" name="/backbone/stage4/unit7/conv3/conv/Conv" type="Add" version="opset1">
			<data auto_broadcast="numpy" />
			<input>
				<port id="0" precision="FP32">
					<dim>1</dim>
					<dim>96</dim>
					<dim>50</dim>
					<dim>62</dim>
				</port>
				<port id="1" precision="FP32">
					<dim>1</dim>
					<dim>96</dim>
					<dim>1</dim>
					<dim>1</dim>
				</port>
			</input>
			<output>
				<port id="2" precision="FP32" names="/backbone/stage4/unit7/conv3/conv/Conv_output_0">
					<dim>1</dim>
					<dim>96</dim>
					<dim>50</dim>
					<dim>62</dim>
				</port>
			</output>
		</layer>
		<layer id="284" name="/backbone/stage4/unit7/Add" type="Add" version="opset1">
			<data auto_broadcast="numpy" />
			<input>
				<port id="0" precision="FP32">
					<dim>1</dim>
					<dim>96</dim>
					<dim>50</dim>
					<dim>62</dim>
				</port>
				<port id="1" precision="FP32">
					<dim>1</dim>
					<dim>96</dim>
					<dim>50</dim>
					<dim>62</dim>
				</port>
			</input>
			<output>
				<port id="2" precision="FP32" names="/backbone/stage4/unit7/Add_output_0">
					<dim>1</dim>
					<dim>96</dim>
					<dim>50</dim>
					<dim>62</dim>
				</port>
			</output>
		</layer>
		<layer id="285" name="model.neck.lateral_convs.1.conv.weight_compressed" type="Const" version="opset1">
			<data element_type="f16" shape="64, 96, 1, 1" offset="1075280" size="12288" />
			<output>
				<port id="0" precision="FP16" names="model.neck.lateral_convs.1.conv.weight">
					<dim>64</dim>
					<dim>96</dim>
					<dim>1</dim>
					<dim>1</dim>
				</port>
			</output>
		</layer>
		<layer id="286" name="model.neck.lateral_convs.1.conv.weight" type="Convert" version="opset1">
			<data destination_type="f32" />
			<rt_info>
				<attribute name="decompression" version="0" />
			</rt_info>
			<input>
				<port id="0" precision="FP16">
					<dim>64</dim>
					<dim>96</dim>
					<dim>1</dim>
					<dim>1</dim>
				</port>
			</input>
			<output>
				<port id="1" precision="FP32">
					<dim>64</dim>
					<dim>96</dim>
					<dim>1</dim>
					<dim>1</dim>
				</port>
			</output>
		</layer>
		<layer id="287" name="/neck/lateral_convs.1/conv/Conv/WithoutBiases" type="Convolution" version="opset1">
			<data strides="1, 1" dilations="1, 1" pads_begin="0, 0" pads_end="0, 0" auto_pad="explicit" />
			<input>
				<port id="0" precision="FP32">
					<dim>1</dim>
					<dim>96</dim>
					<dim>50</dim>
					<dim>62</dim>
				</port>
				<port id="1" precision="FP32">
					<dim>64</dim>
					<dim>96</dim>
					<dim>1</dim>
					<dim>1</dim>
				</port>
			</input>
			<output>
				<port id="2" precision="FP32">
					<dim>1</dim>
					<dim>64</dim>
					<dim>50</dim>
					<dim>62</dim>
				</port>
			</output>
		</layer>
		<layer id="288" name="Reshape_64393_compressed" type="Const" version="opset1">
			<data element_type="f16" shape="1, 64, 1, 1" offset="1087568" size="128" />
			<output>
				<port id="0" precision="FP16">
					<dim>1</dim>
					<dim>64</dim>
					<dim>1</dim>
					<dim>1</dim>
				</port>
			</output>
		</layer>
		<layer id="289" name="Reshape_64393" type="Convert" version="opset1">
			<data destination_type="f32" />
			<rt_info>
				<attribute name="decompression" version="0" />
			</rt_info>
			<input>
				<port id="0" precision="FP16">
					<dim>1</dim>
					<dim>64</dim>
					<dim>1</dim>
					<dim>1</dim>
				</port>
			</input>
			<output>
				<port id="1" precision="FP32">
					<dim>1</dim>
					<dim>64</dim>
					<dim>1</dim>
					<dim>1</dim>
				</port>
			</output>
		</layer>
		<layer id="290" name="/neck/lateral_convs.1/conv/Conv" type="Add" version="opset1">
			<data auto_broadcast="numpy" />
			<input>
				<port id="0" precision="FP32">
					<dim>1</dim>
					<dim>64</dim>
					<dim>50</dim>
					<dim>62</dim>
				</port>
				<port id="1" precision="FP32">
					<dim>1</dim>
					<dim>64</dim>
					<dim>1</dim>
					<dim>1</dim>
				</port>
			</input>
			<output>
				<port id="2" precision="FP32" names="/neck/lateral_convs.1/conv/Conv_output_0">
					<dim>1</dim>
					<dim>64</dim>
					<dim>50</dim>
					<dim>62</dim>
				</port>
			</output>
		</layer>
		<layer id="291" name="onnx::Conv_2609_compressed" type="Const" version="opset1">
			<data element_type="f16" shape="576, 96, 1, 1" offset="1087696" size="110592" />
			<output>
				<port id="0" precision="FP16" names="onnx::Conv_2609">
					<dim>576</dim>
					<dim>96</dim>
					<dim>1</dim>
					<dim>1</dim>
				</port>
			</output>
		</layer>
		<layer id="292" name="onnx::Conv_2609" type="Convert" version="opset1">
			<data destination_type="f32" />
			<rt_info>
				<attribute name="decompression" version="0" />
			</rt_info>
			<input>
				<port id="0" precision="FP16">
					<dim>576</dim>
					<dim>96</dim>
					<dim>1</dim>
					<dim>1</dim>
				</port>
			</input>
			<output>
				<port id="1" precision="FP32">
					<dim>576</dim>
					<dim>96</dim>
					<dim>1</dim>
					<dim>1</dim>
				</port>
			</output>
		</layer>
		<layer id="293" name="/backbone/stage5/unit1/conv1/conv/Conv/WithoutBiases" type="Convolution" version="opset1">
			<data strides="1, 1" dilations="1, 1" pads_begin="0, 0" pads_end="0, 0" auto_pad="explicit" />
			<input>
				<port id="0" precision="FP32">
					<dim>1</dim>
					<dim>96</dim>
					<dim>50</dim>
					<dim>62</dim>
				</port>
				<port id="1" precision="FP32">
					<dim>576</dim>
					<dim>96</dim>
					<dim>1</dim>
					<dim>1</dim>
				</port>
			</input>
			<output>
				<port id="2" precision="FP32">
					<dim>1</dim>
					<dim>576</dim>
					<dim>50</dim>
					<dim>62</dim>
				</port>
			</output>
		</layer>
		<layer id="294" name="Reshape_64006_compressed" type="Const" version="opset1">
			<data element_type="f16" shape="1, 576, 1, 1" offset="1198288" size="1152" />
			<output>
				<port id="0" precision="FP16">
					<dim>1</dim>
					<dim>576</dim>
					<dim>1</dim>
					<dim>1</dim>
				</port>
			</output>
		</layer>
		<layer id="295" name="Reshape_64006" type="Convert" version="opset1">
			<data destination_type="f32" />
			<rt_info>
				<attribute name="decompression" version="0" />
			</rt_info>
			<input>
				<port id="0" precision="FP16">
					<dim>1</dim>
					<dim>576</dim>
					<dim>1</dim>
					<dim>1</dim>
				</port>
			</input>
			<output>
				<port id="1" precision="FP32">
					<dim>1</dim>
					<dim>576</dim>
					<dim>1</dim>
					<dim>1</dim>
				</port>
			</output>
		</layer>
		<layer id="296" name="/backbone/stage5/unit1/conv1/conv/Conv" type="Add" version="opset1">
			<data auto_broadcast="numpy" />
			<input>
				<port id="0" precision="FP32">
					<dim>1</dim>
					<dim>576</dim>
					<dim>50</dim>
					<dim>62</dim>
				</port>
				<port id="1" precision="FP32">
					<dim>1</dim>
					<dim>576</dim>
					<dim>1</dim>
					<dim>1</dim>
				</port>
			</input>
			<output>
				<port id="2" precision="FP32" names="/backbone/stage5/unit1/conv1/conv/Conv_output_0">
					<dim>1</dim>
					<dim>576</dim>
					<dim>50</dim>
					<dim>62</dim>
				</port>
			</output>
		</layer>
		<layer id="297" name="/backbone/stage5/unit1/conv1/activ/Clip" type="Clamp" version="opset1">
			<data min="0" max="6" />
			<input>
				<port id="0" precision="FP32">
					<dim>1</dim>
					<dim>576</dim>
					<dim>50</dim>
					<dim>62</dim>
				</port>
			</input>
			<output>
				<port id="1" precision="FP32" names="/backbone/stage5/unit1/conv1/activ/Clip_output_0">
					<dim>1</dim>
					<dim>576</dim>
					<dim>50</dim>
					<dim>62</dim>
				</port>
			</output>
		</layer>
		<layer id="298" name="Reshape_64019_compressed" type="Const" version="opset1">
			<data element_type="f16" shape="576, 1, 1, 3, 3" offset="1199440" size="10368" />
			<output>
				<port id="0" precision="FP16">
					<dim>576</dim>
					<dim>1</dim>
					<dim>1</dim>
					<dim>3</dim>
					<dim>3</dim>
				</port>
			</output>
		</layer>
		<layer id="299" name="Reshape_64019" type="Convert" version="opset1">
			<data destination_type="f32" />
			<rt_info>
				<attribute name="decompression" version="0" />
			</rt_info>
			<input>
				<port id="0" precision="FP16">
					<dim>576</dim>
					<dim>1</dim>
					<dim>1</dim>
					<dim>3</dim>
					<dim>3</dim>
				</port>
			</input>
			<output>
				<port id="1" precision="FP32">
					<dim>576</dim>
					<dim>1</dim>
					<dim>1</dim>
					<dim>3</dim>
					<dim>3</dim>
				</port>
			</output>
		</layer>
		<layer id="300" name="/backbone/stage5/unit1/conv2/conv/Conv/WithoutBiases" type="GroupConvolution" version="opset1">
			<data strides="2, 2" pads_begin="1, 1" pads_end="1, 1" dilations="1, 1" auto_pad="explicit" />
			<input>
				<port id="0" precision="FP32">
					<dim>1</dim>
					<dim>576</dim>
					<dim>50</dim>
					<dim>62</dim>
				</port>
				<port id="1" precision="FP32">
					<dim>576</dim>
					<dim>1</dim>
					<dim>1</dim>
					<dim>3</dim>
					<dim>3</dim>
				</port>
			</input>
			<output>
				<port id="2" precision="FP32">
					<dim>1</dim>
					<dim>576</dim>
					<dim>25</dim>
					<dim>31</dim>
				</port>
			</output>
		</layer>
		<layer id="301" name="Reshape_64069_compressed" type="Const" version="opset1">
			<data element_type="f16" shape="1, 576, 1, 1" offset="1209808" size="1152" />
			<output>
				<port id="0" precision="FP16">
					<dim>1</dim>
					<dim>576</dim>
					<dim>1</dim>
					<dim>1</dim>
				</port>
			</output>
		</layer>
		<layer id="302" name="Reshape_64069" type="Convert" version="opset1">
			<data destination_type="f32" />
			<rt_info>
				<attribute name="decompression" version="0" />
			</rt_info>
			<input>
				<port id="0" precision="FP16">
					<dim>1</dim>
					<dim>576</dim>
					<dim>1</dim>
					<dim>1</dim>
				</port>
			</input>
			<output>
				<port id="1" precision="FP32">
					<dim>1</dim>
					<dim>576</dim>
					<dim>1</dim>
					<dim>1</dim>
				</port>
			</output>
		</layer>
		<layer id="303" name="/backbone/stage5/unit1/conv2/conv/Conv" type="Add" version="opset1">
			<data auto_broadcast="numpy" />
			<input>
				<port id="0" precision="FP32">
					<dim>1</dim>
					<dim>576</dim>
					<dim>25</dim>
					<dim>31</dim>
				</port>
				<port id="1" precision="FP32">
					<dim>1</dim>
					<dim>576</dim>
					<dim>1</dim>
					<dim>1</dim>
				</port>
			</input>
			<output>
				<port id="2" precision="FP32" names="/backbone/stage5/unit1/conv2/conv/Conv_output_0">
					<dim>1</dim>
					<dim>576</dim>
					<dim>25</dim>
					<dim>31</dim>
				</port>
			</output>
		</layer>
		<layer id="304" name="/backbone/stage5/unit1/conv2/activ/Clip" type="Clamp" version="opset1">
			<data min="0" max="6" />
			<input>
				<port id="0" precision="FP32">
					<dim>1</dim>
					<dim>576</dim>
					<dim>25</dim>
					<dim>31</dim>
				</port>
			</input>
			<output>
				<port id="1" precision="FP32" names="/backbone/stage5/unit1/conv2/activ/Clip_output_0">
					<dim>1</dim>
					<dim>576</dim>
					<dim>25</dim>
					<dim>31</dim>
				</port>
			</output>
		</layer>
		<layer id="305" name="onnx::Conv_2615_compressed" type="Const" version="opset1">
			<data element_type="f16" shape="160, 576, 1, 1" offset="1210960" size="184320" />
			<output>
				<port id="0" precision="FP16" names="onnx::Conv_2615">
					<dim>160</dim>
					<dim>576</dim>
					<dim>1</dim>
					<dim>1</dim>
				</port>
			</output>
		</layer>
		<layer id="306" name="onnx::Conv_2615" type="Convert" version="opset1">
			<data destination_type="f32" />
			<rt_info>
				<attribute name="decompression" version="0" />
			</rt_info>
			<input>
				<port id="0" precision="FP16">
					<dim>160</dim>
					<dim>576</dim>
					<dim>1</dim>
					<dim>1</dim>
				</port>
			</input>
			<output>
				<port id="1" precision="FP32">
					<dim>160</dim>
					<dim>576</dim>
					<dim>1</dim>
					<dim>1</dim>
				</port>
			</output>
		</layer>
		<layer id="307" name="/backbone/stage5/unit1/conv3/conv/Conv/WithoutBiases" type="Convolution" version="opset1">
			<data strides="1, 1" dilations="1, 1" pads_begin="0, 0" pads_end="0, 0" auto_pad="explicit" />
			<input>
				<port id="0" precision="FP32">
					<dim>1</dim>
					<dim>576</dim>
					<dim>25</dim>
					<dim>31</dim>
				</port>
				<port id="1" precision="FP32">
					<dim>160</dim>
					<dim>576</dim>
					<dim>1</dim>
					<dim>1</dim>
				</port>
			</input>
			<output>
				<port id="2" precision="FP32">
					<dim>1</dim>
					<dim>160</dim>
					<dim>25</dim>
					<dim>31</dim>
				</port>
			</output>
		</layer>
		<layer id="308" name="Reshape_64086_compressed" type="Const" version="opset1">
			<data element_type="f16" shape="1, 160, 1, 1" offset="1395280" size="320" />
			<output>
				<port id="0" precision="FP16">
					<dim>1</dim>
					<dim>160</dim>
					<dim>1</dim>
					<dim>1</dim>
				</port>
			</output>
		</layer>
		<layer id="309" name="Reshape_64086" type="Convert" version="opset1">
			<data destination_type="f32" />
			<rt_info>
				<attribute name="decompression" version="0" />
			</rt_info>
			<input>
				<port id="0" precision="FP16">
					<dim>1</dim>
					<dim>160</dim>
					<dim>1</dim>
					<dim>1</dim>
				</port>
			</input>
			<output>
…
		<edge from-layer="1599" from-port="0" to-layer="1601" to-port="1" />
		<edge from-layer="1600" from-port="0" to-layer="1601" to-port="2" />
		<edge from-layer="1601" from-port="3" to-layer="1602" to-port="1" />
		<edge from-layer="1601" from-port="3" to-layer="1604" to-port="2" />
		<edge from-layer="1602" from-port="2" to-layer="1604" to-port="0" />
		<edge from-layer="1603" from-port="0" to-layer="1604" to-port="1" />
		<edge from-layer="1604" from-port="3" to-layer="1606" to-port="0" />
		<edge from-layer="1605" from-port="0" to-layer="1606" to-port="1" />
		<edge from-layer="1606" from-port="2" to-layer="1608" to-port="0" />
		<edge from-layer="1607" from-port="0" to-layer="1608" to-port="1" />
		<edge from-layer="1608" from-port="2" to-layer="1609" to-port="1" />
		<edge from-layer="1609" from-port="3" to-layer="1887" to-port="0" />
		<edge from-layer="1609" from-port="3" to-layer="1635" to-port="0" />
		<edge from-layer="1609" from-port="3" to-layer="1615" to-port="0" />
		<edge from-layer="1609" from-port="3" to-layer="2004" to-port="0" />
		<edge from-layer="1610" from-port="0" to-layer="1614" to-port="0" />
		<edge from-layer="1611" from-port="0" to-layer="1613" to-port="1" />
		<edge from-layer="1612" from-port="0" to-layer="1613" to-port="2" />
		<edge from-layer="1613" from-port="3" to-layer="1614" to-port="1" />
		<edge from-layer="1614" from-port="2" to-layer="1615" to-port="1" />
		<edge from-layer="1615" from-port="2" to-layer="1617" to-port="1" />
		<edge from-layer="1616" from-port="0" to-layer="1617" to-port="2" />
		<edge from-layer="1617" from-port="3" to-layer="1619" to-port="0" />
		<edge from-layer="1618" from-port="0" to-layer="1619" to-port="1" />
		<edge from-layer="1619" from-port="2" to-layer="1641" to-port="0" />
		<edge from-layer="1620" from-port="0" to-layer="1621" to-port="0" />
		<edge from-layer="1621" from-port="1" to-layer="1622" to-port="1" />
		<edge from-layer="1622" from-port="2" to-layer="1625" to-port="0" />
		<edge from-layer="1623" from-port="0" to-layer="1624" to-port="0" />
		<edge from-layer="1624" from-port="1" to-layer="1625" to-port="1" />
		<edge from-layer="1625" from-port="2" to-layer="1627" to-port="0" />
		<edge from-layer="1626" from-port="0" to-layer="1627" to-port="1" />
		<edge from-layer="1627" from-port="2" to-layer="1629" to-port="0" />
		<edge from-layer="1628" from-port="0" to-layer="1629" to-port="1" />
		<edge from-layer="1629" from-port="2" to-layer="1630" to-port="0" />
		<edge from-layer="1629" from-port="2" to-layer="1726" to-port="0" />
		<edge from-layer="1630" from-port="1" to-layer="1721" to-port="0" />
		<edge from-layer="1630" from-port="1" to-layer="1639" to-port="0" />
		<edge from-layer="1630" from-port="1" to-layer="1633" to-port="0" />
		<edge from-layer="1631" from-port="0" to-layer="1633" to-port="1" />
		<edge from-layer="1632" from-port="0" to-layer="1633" to-port="2" />
		<edge from-layer="1633" from-port="3" to-layer="1634" to-port="1" />
		<edge from-layer="1634" from-port="2" to-layer="1635" to-port="1" />
		<edge from-layer="1635" from-port="2" to-layer="1728" to-port="1" />
		<edge from-layer="1635" from-port="2" to-layer="1636" to-port="0" />
		<edge from-layer="1636" from-port="1" to-layer="2012" to-port="0" />
		<edge from-layer="1636" from-port="1" to-layer="1640" to-port="0" />
		<edge from-layer="1637" from-port="0" to-layer="1639" to-port="1" />
		<edge from-layer="1638" from-port="0" to-layer="1639" to-port="2" />
		<edge from-layer="1639" from-port="3" to-layer="1640" to-port="1" />
		<edge from-layer="1640" from-port="2" to-layer="1892" to-port="1" />
		<edge from-layer="1640" from-port="2" to-layer="1731" to-port="1" />
		<edge from-layer="1640" from-port="2" to-layer="1641" to-port="1" />
		<edge from-layer="1641" from-port="2" to-layer="1642" to-port="4" />
		<edge from-layer="1642" from-port="5" to-layer="1654" to-port="0" />
		<edge from-layer="1642" from-port="5" to-layer="1647" to-port="0" />
		<edge from-layer="1643" from-port="0" to-layer="1647" to-port="1" />
		<edge from-layer="1644" from-port="0" to-layer="1647" to-port="2" />
		<edge from-layer="1645" from-port="0" to-layer="1647" to-port="3" />
		<edge from-layer="1646" from-port="0" to-layer="1647" to-port="4" />
		<edge from-layer="1647" from-port="5" to-layer="1649" to-port="0" />
		<edge from-layer="1648" from-port="0" to-layer="1649" to-port="1" />
		<edge from-layer="1649" from-port="2" to-layer="1657" to-port="0" />
		<edge from-layer="1649" from-port="2" to-layer="1661" to-port="1" />
		<edge from-layer="1650" from-port="0" to-layer="1654" to-port="1" />
		<edge from-layer="1651" from-port="0" to-layer="1654" to-port="2" />
		<edge from-layer="1652" from-port="0" to-layer="1654" to-port="3" />
		<edge from-layer="1653" from-port="0" to-layer="1654" to-port="4" />
		<edge from-layer="1654" from-port="5" to-layer="1656" to-port="0" />
		<edge from-layer="1655" from-port="0" to-layer="1656" to-port="1" />
		<edge from-layer="1656" from-port="2" to-layer="1657" to-port="1" />
		<edge from-layer="1656" from-port="2" to-layer="1661" to-port="0" />
		<edge from-layer="1657" from-port="2" to-layer="1660" to-port="0" />
		<edge from-layer="1658" from-port="0" to-layer="1659" to-port="0" />
		<edge from-layer="1659" from-port="1" to-layer="1660" to-port="1" />
		<edge from-layer="1660" from-port="2" to-layer="1744" to-port="0" />
		<edge from-layer="1661" from-port="2" to-layer="1743" to-port="0" />
		<edge from-layer="1661" from-port="2" to-layer="1752" to-port="0" />
		<edge from-layer="1662" from-port="0" to-layer="1665" to-port="1" />
		<edge from-layer="1663" from-port="0" to-layer="1665" to-port="2" />
		<edge from-layer="1664" from-port="0" to-layer="1665" to-port="3" />
		<edge from-layer="1665" from-port="4" to-layer="1667" to-port="0" />
		<edge from-layer="1666" from-port="0" to-layer="1667" to-port="1" />
		<edge from-layer="1667" from-port="2" to-layer="1669" to-port="0" />
		<edge from-layer="1668" from-port="0" to-layer="1669" to-port="1" />
		<edge from-layer="1669" from-port="2" to-layer="1670" to-port="1" />
		<edge from-layer="1670" from-port="2" to-layer="1672" to-port="0" />
		<edge from-layer="1671" from-port="0" to-layer="1672" to-port="2" />
		<edge from-layer="1672" from-port="3" to-layer="1674" to-port="0" />
		<edge from-layer="1673" from-port="0" to-layer="1674" to-port="1" />
		<edge from-layer="1674" from-port="2" to-layer="1675" to-port="0" />
		<edge from-layer="1675" from-port="2" to-layer="1732" to-port="0" />
		<edge from-layer="1676" from-port="0" to-layer="1679" to-port="1" />
		<edge from-layer="1677" from-port="0" to-layer="1679" to-port="2" />
		<edge from-layer="1678" from-port="0" to-layer="1679" to-port="3" />
		<edge from-layer="1679" from-port="4" to-layer="1681" to-port="0" />
		<edge from-layer="1680" from-port="0" to-layer="1681" to-port="1" />
		<edge from-layer="1681" from-port="2" to-layer="1683" to-port="0" />
		<edge from-layer="1682" from-port="0" to-layer="1683" to-port="1" />
		<edge from-layer="1683" from-port="2" to-layer="1684" to-port="1" />
		<edge from-layer="1684" from-port="2" to-layer="1686" to-port="0" />
		<edge from-layer="1685" from-port="0" to-layer="1686" to-port="2" />
		<edge from-layer="1686" from-port="3" to-layer="1688" to-port="0" />
		<edge from-layer="1687" from-port="0" to-layer="1688" to-port="1" />
		<edge from-layer="1688" from-port="2" to-layer="1689" to-port="0" />
		<edge from-layer="1689" from-port="2" to-layer="1732" to-port="1" />
		<edge from-layer="1690" from-port="0" to-layer="1693" to-port="1" />
		<edge from-layer="1691" from-port="0" to-layer="1693" to-port="2" />
		<edge from-layer="1692" from-port="0" to-layer="1693" to-port="3" />
		<edge from-layer="1693" from-port="4" to-layer="1695" to-port="0" />
		<edge from-layer="1694" from-port="0" to-layer="1695" to-port="1" />
		<edge from-layer="1695" from-port="2" to-layer="1697" to-port="0" />
		<edge from-layer="1696" from-port="0" to-layer="1697" to-port="1" />
		<edge from-layer="1697" from-port="2" to-layer="1698" to-port="1" />
		<edge from-layer="1698" from-port="2" to-layer="1700" to-port="0" />
		<edge from-layer="1699" from-port="0" to-layer="1700" to-port="2" />
		<edge from-layer="1700" from-port="3" to-layer="1702" to-port="0" />
		<edge from-layer="1701" from-port="0" to-layer="1702" to-port="1" />
		<edge from-layer="1702" from-port="2" to-layer="1703" to-port="0" />
		<edge from-layer="1703" from-port="2" to-layer="1732" to-port="2" />
		<edge from-layer="1704" from-port="0" to-layer="1707" to-port="1" />
		<edge from-layer="1705" from-port="0" to-layer="1707" to-port="2" />
		<edge from-layer="1706" from-port="0" to-layer="1707" to-port="3" />
		<edge from-layer="1707" from-port="4" to-layer="1709" to-port="0" />
		<edge from-layer="1708" from-port="0" to-layer="1709" to-port="1" />
		<edge from-layer="1709" from-port="2" to-layer="1711" to-port="0" />
		<edge from-layer="1710" from-port="0" to-layer="1711" to-port="1" />
		<edge from-layer="1711" from-port="2" to-layer="1712" to-port="1" />
		<edge from-layer="1712" from-port="2" to-layer="1714" to-port="0" />
		<edge from-layer="1713" from-port="0" to-layer="1714" to-port="2" />
		<edge from-layer="1714" from-port="3" to-layer="1716" to-port="0" />
		<edge from-layer="1715" from-port="0" to-layer="1716" to-port="1" />
		<edge from-layer="1716" from-port="2" to-layer="1717" to-port="0" />
		<edge from-layer="1717" from-port="2" to-layer="1732" to-port="3" />
		<edge from-layer="1718" from-port="0" to-layer="1721" to-port="1" />
		<edge from-layer="1719" from-port="0" to-layer="1721" to-port="2" />
		<edge from-layer="1720" from-port="0" to-layer="1721" to-port="3" />
		<edge from-layer="1721" from-port="4" to-layer="1723" to-port="0" />
		<edge from-layer="1722" from-port="0" to-layer="1723" to-port="1" />
		<edge from-layer="1723" from-port="2" to-layer="1725" to-port="0" />
		<edge from-layer="1724" from-port="0" to-layer="1725" to-port="1" />
		<edge from-layer="1725" from-port="2" to-layer="1726" to-port="1" />
		<edge from-layer="1726" from-port="2" to-layer="1728" to-port="0" />
		<edge from-layer="1727" from-port="0" to-layer="1728" to-port="2" />
		<edge from-layer="1728" from-port="3" to-layer="1730" to-port="0" />
		<edge from-layer="1729" from-port="0" to-layer="1730" to-port="1" />
		<edge from-layer="1730" from-port="2" to-layer="1731" to-port="0" />
		<edge from-layer="1731" from-port="2" to-layer="1732" to-port="4" />
		<edge from-layer="1732" from-port="5" to-layer="1783" to-port="0" />
		<edge from-layer="1732" from-port="5" to-layer="1734" to-port="0" />
		<edge from-layer="1733" from-port="0" to-layer="1734" to-port="1" />
		<edge from-layer="1734" from-port="2" to-layer="1737" to-port="0" />
		<edge from-layer="1735" from-port="0" to-layer="1736" to-port="0" />
		<edge from-layer="1736" from-port="1" to-layer="1737" to-port="1" />
		<edge from-layer="1737" from-port="2" to-layer="1742" to-port="0" />
		<edge from-layer="1737" from-port="2" to-layer="1749" to-port="0" />
		<edge from-layer="1738" from-port="0" to-layer="1742" to-port="1" />
		<edge from-layer="1739" from-port="0" to-layer="1742" to-port="2" />
		<edge from-layer="1740" from-port="0" to-layer="1742" to-port="3" />
		<edge from-layer="1741" from-port="0" to-layer="1742" to-port="4" />
		<edge from-layer="1742" from-port="5" to-layer="1743" to-port="1" />
		<edge from-layer="1743" from-port="2" to-layer="1744" to-port="1" />
		<edge from-layer="1744" from-port="2" to-layer="1769" to-port="0" />
		<edge from-layer="1744" from-port="2" to-layer="1756" to-port="0" />
		<edge from-layer="1745" from-port="0" to-layer="1749" to-port="1" />
		<edge from-layer="1746" from-port="0" to-layer="1749" to-port="2" />
		<edge from-layer="1747" from-port="0" to-layer="1749" to-port="3" />
		<edge from-layer="1748" from-port="0" to-layer="1749" to-port="4" />
		<edge from-layer="1749" from-port="5" to-layer="1750" to-port="0" />
		<edge from-layer="1750" from-port="1" to-layer="1751" to-port="0" />
		<edge from-layer="1751" from-port="1" to-layer="1752" to-port="1" />
		<edge from-layer="1752" from-port="2" to-layer="1755" to-port="0" />
		<edge from-layer="1753" from-port="0" to-layer="1754" to-port="0" />
		<edge from-layer="1754" from-port="1" to-layer="1755" to-port="1" />
		<edge from-layer="1755" from-port="2" to-layer="1769" to-port="1" />
		<edge from-layer="1755" from-port="2" to-layer="1756" to-port="1" />
		<edge from-layer="1756" from-port="2" to-layer="1765" to-port="0" />
		<edge from-layer="1756" from-port="2" to-layer="1759" to-port="0" />
		<edge from-layer="1757" from-port="0" to-layer="1771" to-port="1" />
		<edge from-layer="1757" from-port="0" to-layer="2073" to-port="1" />
		<edge from-layer="1757" from-port="0" to-layer="1759" to-port="1" />
		<edge from-layer="1758" from-port="0" to-layer="1759" to-port="2" />
		<edge from-layer="1759" from-port="3" to-layer="1760" to-port="0" />
		<edge from-layer="1760" from-port="1" to-layer="1762" to-port="0" />
		<edge from-layer="1761" from-port="0" to-layer="1762" to-port="1" />
		<edge from-layer="1762" from-port="2" to-layer="1780" to-port="0" />
		<edge from-layer="1763" from-port="0" to-layer="1776" to-port="1" />
		<edge from-layer="1763" from-port="0" to-layer="1765" to-port="1" />
		<edge from-layer="1763" from-port="0" to-layer="2078" to-port="1" />
		<edge from-layer="1764" from-port="0" to-layer="1765" to-port="2" />
		<edge from-layer="1765" from-port="3" to-layer="1766" to-port="0" />
		<edge from-layer="1766" from-port="1" to-layer="1768" to-port="0" />
		<edge from-layer="1767" from-port="0" to-layer="1768" to-port="1" />
		<edge from-layer="1768" from-port="2" to-layer="1780" to-port="1" />
		<edge from-layer="1769" from-port="2" to-layer="1776" to-port="0" />
		<edge from-layer="1769" from-port="2" to-layer="1771" to-port="0" />
		<edge from-layer="1770" from-port="0" to-layer="1771" to-port="2" />
		<edge from-layer="1771" from-port="3" to-layer="1772" to-port="0" />
		<edge from-layer="1772" from-port="1" to-layer="1774" to-port="0" />
		<edge from-layer="1773" from-port="0" to-layer="1774" to-port="1" />
		<edge from-layer="1774" from-port="2" to-layer="1780" to-port="2" />
		<edge from-layer="1775" from-port="0" to-layer="1776" to-port="2" />
		<edge from-layer="1776" from-port="3" to-layer="1777" to-port="0" />
		<edge from-layer="1777" from-port="1" to-layer="1779" to-port="0" />
		<edge from-layer="1778" from-port="0" to-layer="1779" to-port="1" />
		<edge from-layer="1779" from-port="2" to-layer="1780" to-port="3" />
		<edge from-layer="1780" from-port="4" to-layer="1782" to-port="0" />
		<edge from-layer="1781" from-port="0" to-layer="1782" to-port="1" />
		<edge from-layer="1782" from-port="2" to-layer="1792" to-port="0" />
		<edge from-layer="1783" from-port="1" to-layer="2035" to-port="0" />
		<edge from-layer="1783" from-port="1" to-layer="1787" to-port="0" />
		<edge from-layer="1784" from-port="0" to-layer="1787" to-port="1" />
		<edge from-layer="1785" from-port="0" to-layer="1787" to-port="2" />
		<edge from-layer="1786" from-port="0" to-layer="1787" to-port="3" />
		<edge from-layer="1787" from-port="4" to-layer="1789" to-port="0" />
		<edge from-layer="1788" from-port="0" to-layer="1789" to-port="1" />
		<edge from-layer="1789" from-port="2" to-layer="1791" to-port="0" />
		<edge from-layer="1790" from-port="0" to-layer="1791" to-port="1" />
		<edge from-layer="1791" from-port="2" to-layer="1792" to-port="1" />
		<edge from-layer="1792" from-port="2" to-layer="2039" to-port="0" />
		<edge from-layer="1793" from-port="1" to-layer="1805" to-port="0" />
		<edge from-layer="1793" from-port="1" to-layer="1797" to-port="0" />
		<edge from-layer="1794" from-port="0" to-layer="1797" to-port="1" />
		<edge from-layer="1795" from-port="0" to-layer="1797" to-port="2" />
		<edge from-layer="1796" from-port="0" to-layer="1797" to-port="3" />
		<edge from-layer="1797" from-port="4" to-layer="1799" to-port="0" />
		<edge from-layer="1798" from-port="0" to-layer="1799" to-port="1" />
		<edge from-layer="1799" from-port="2" to-layer="1801" to-port="0" />
		<edge from-layer="1800" from-port="0" to-layer="1801" to-port="1" />
		<edge from-layer="1801" from-port="2" to-layer="1802" to-port="1" />
		<edge from-layer="1802" from-port="2" to-layer="1809" to-port="0" />
		<edge from-layer="1803" from-port="0" to-layer="1805" to-port="1" />
		<edge from-layer="1804" from-port="0" to-layer="1805" to-port="2" />
		<edge from-layer="1805" from-port="3" to-layer="1806" to-port="1" />
		<edge from-layer="1806" from-port="2" to-layer="1807" to-port="1" />
		<edge from-layer="1807" from-port="2" to-layer="1809" to-port="1" />
		<edge from-layer="1808" from-port="0" to-layer="1809" to-port="2" />
		<edge from-layer="1809" from-port="3" to-layer="1811" to-port="0" />
		<edge from-layer="1810" from-port="0" to-layer="1811" to-port="1" />
		<edge from-layer="1811" from-port="2" to-layer="1812" to-port="0" />
		<edge from-layer="1812" from-port="2" to-layer="1893" to-port="0" />
		<edge from-layer="1813" from-port="1" to-layer="1825" to-port="0" />
		<edge from-layer="1813" from-port="1" to-layer="1817" to-port="0" />
		<edge from-layer="1814" from-port="0" to-layer="1817" to-port="1" />
		<edge from-layer="1815" from-port="0" to-layer="1817" to-port="2" />
		<edge from-layer="1816" from-port="0" to-layer="1817" to-port="3" />
		<edge from-layer="1817" from-port="4" to-layer="1819" to-port="0" />
		<edge from-layer="1818" from-port="0" to-layer="1819" to-port="1" />
		<edge from-layer="1819" from-port="2" to-layer="1821" to-port="0" />
		<edge from-layer="1820" from-port="0" to-layer="1821" to-port="1" />
		<edge from-layer="1821" from-port="2" to-layer="1822" to-port="1" />
		<edge from-layer="1822" from-port="2" to-layer="1829" to-port="0" />
		<edge from-layer="1823" from-port="0" to-layer="1825" to-port="1" />
		<edge from-layer="1824" from-port="0" to-layer="1825" to-port="2" />
		<edge from-layer="1825" from-port="3" to-layer="1826" to-port="1" />
		<edge from-layer="1826" from-port="2" to-layer="1827" to-port="1" />
		<edge from-layer="1827" from-port="2" to-layer="1829" to-port="1" />
		<edge from-layer="1828" from-port="0" to-layer="1829" to-port="2" />
		<edge from-layer="1829" from-port="3" to-layer="1831" to-port="0" />
		<edge from-layer="1830" from-port="0" to-layer="1831" to-port="1" />
		<edge from-layer="1831" from-port="2" to-layer="1832" to-port="0" />
		<edge from-layer="1832" from-port="2" to-layer="1893" to-port="1" />
		<edge from-layer="1833" from-port="1" to-layer="1837" to-port="0" />
		<edge from-layer="1833" from-port="1" to-layer="1845" to-port="0" />
		<edge from-layer="1834" from-port="0" to-layer="1837" to-port="1" />
		<edge from-layer="1835" from-port="0" to-layer="1837" to-port="2" />
		<edge from-layer="1836" from-port="0" to-layer="1837" to-port="3" />
		<edge from-layer="1837" from-port="4" to-layer="1839" to-port="0" />
		<edge from-layer="1838" from-port="0" to-layer="1839" to-port="1" />
		<edge from-layer="1839" from-port="2" to-layer="1841" to-port="0" />
		<edge from-layer="1840" from-port="0" to-layer="1841" to-port="1" />
		<edge from-layer="1841" from-port="2" to-layer="1842" to-port="1" />
		<edge from-layer="1842" from-port="2" to-layer="1849" to-port="0" />
		<edge from-layer="1843" from-port="0" to-layer="1845" to-port="1" />
		<edge from-layer="1844" from-port="0" to-layer="1845" to-port="2" />
		<edge from-layer="1845" from-port="3" to-layer="1846" to-port="1" />
		<edge from-layer="1846" from-port="2" to-layer="1847" to-port="1" />
		<edge from-layer="1847" from-port="2" to-layer="1849" to-port="1" />
		<edge from-layer="1848" from-port="0" to-layer="1849" to-port="2" />
		<edge from-layer="1849" from-port="3" to-layer="1851" to-port="0" />
		<edge from-layer="1850" from-port="0" to-layer="1851" to-port="1" />
		<edge from-layer="1851" from-port="2" to-layer="1852" to-port="0" />
		<edge from-layer="1852" from-port="2" to-layer="1893" to-port="2" />
		<edge from-layer="1853" from-port="1" to-layer="1865" to-port="0" />
		<edge from-layer="1853" from-port="1" to-layer="1857" to-port="0" />
		<edge from-layer="1854" from-port="0" to-layer="1857" to-port="1" />
		<edge from-layer="1855" from-port="0" to-layer="1857" to-port="2" />
		<edge from-layer="1856" from-port="0" to-layer="1857" to-port="3" />
		<edge from-layer="1857" from-port="4" to-layer="1859" to-port="0" />
		<edge from-layer="1858" from-port="0" to-layer="1859" to-port="1" />
		<edge from-layer="1859" from-port="2" to-layer="1861" to-port="0" />
		<edge from-layer="1860" from-port="0" to-layer="1861" to-port="1" />
		<edge from-layer="1861" from-port="2" to-layer="1862" to-port="1" />
		<edge from-layer="1862" from-port="2" to-layer="1869" to-port="0" />
		<edge from-layer="1863" from-port="0" to-layer="1865" to-port="1" />
		<edge from-layer="1864" from-port="0" to-layer="1865" to-port="2" />
		<edge from-layer="1865" from-port="3" to-layer="1866" to-port="1" />
		<edge from-layer="1866" from-port="2" to-layer="1867" to-port="1" />
		<edge from-layer="1867" from-port="2" to-layer="1869" to-port="1" />
		<edge from-layer="1868" from-port="0" to-layer="1869" to-port="2" />
		<edge from-layer="1869" from-port="3" to-layer="1871" to-port="0" />
		<edge from-layer="1870" from-port="0" to-layer="1871" to-port="1" />
		<edge from-layer="1871" from-port="2" to-layer="1872" to-port="0" />
		<edge from-layer="1872" from-port="2" to-layer="1893" to-port="3" />
		<edge from-layer="1873" from-port="1" to-layer="1877" to-port="0" />
		<edge from-layer="1873" from-port="1" to-layer="1885" to-port="0" />
		<edge from-layer="1874" from-port="0" to-layer="1877" to-port="1" />
		<edge from-layer="1875" from-port="0" to-layer="1877" to-port="2" />
		<edge from-layer="1876" from-port="0" to-layer="1877" to-port="3" />
		<edge from-layer="1877" from-port="4" to-layer="1879" to-port="0" />
		<edge from-layer="1878" from-port="0" to-layer="1879" to-port="1" />
		<edge from-layer="1879" from-port="2" to-layer="1881" to-port="0" />
		<edge from-layer="1880" from-port="0" to-layer="1881" to-port="1" />
		<edge from-layer="1881" from-port="2" to-layer="1882" to-port="1" />
		<edge from-layer="1882" from-port="2" to-layer="1889" to-port="0" />
		<edge from-layer="1883" from-port="0" to-layer="1885" to-port="1" />
		<edge from-layer="1884" from-port="0" to-layer="1885" to-port="2" />
		<edge from-layer="1885" from-port="3" to-layer="1886" to-port="1" />
		<edge from-layer="1886" from-port="2" to-layer="1887" to-port="1" />
		<edge from-layer="1887" from-port="2" to-layer="1889" to-port="1" />
		<edge from-layer="1888" from-port="0" to-layer="1889" to-port="2" />
		<edge from-layer="1889" from-port="3" to-layer="1891" to-port="0" />
		<edge from-layer="1890" from-port="0" to-layer="1891" to-port="1" />
		<edge from-layer="1891" from-port="2" to-layer="1892" to-port="0" />
		<edge from-layer="1892" from-port="2" to-layer="1893" to-port="4" />
		<edge from-layer="1893" from-port="5" to-layer="2015" to-port="0" />
		<edge from-layer="1894" from-port="1" to-layer="1906" to-port="0" />
		<edge from-layer="1894" from-port="1" to-layer="1915" to-port="0" />
		<edge from-layer="1894" from-port="1" to-layer="1898" to-port="0" />
		<edge from-layer="1895" from-port="0" to-layer="1898" to-port="1" />
		<edge from-layer="1896" from-port="0" to-layer="1898" to-port="2" />
		<edge from-layer="1897" from-port="0" to-layer="1898" to-port="3" />
		<edge from-layer="1898" from-port="4" to-layer="1900" to-port="0" />
		<edge from-layer="1899" from-port="0" to-layer="1900" to-port="1" />
		<edge from-layer="1900" from-port="2" to-layer="1902" to-port="0" />
		<edge from-layer="1901" from-port="0" to-layer="1902" to-port="1" />
		<edge from-layer="1902" from-port="2" to-layer="1903" to-port="1" />
		<edge from-layer="1903" from-port="2" to-layer="1910" to-port="0" />
		<edge from-layer="1904" from-port="0" to-layer="1906" to-port="1" />
		<edge from-layer="1905" from-port="0" to-layer="1906" to-port="2" />
		<edge from-layer="1906" from-port="3" to-layer="1907" to-port="1" />
		<edge from-layer="1907" from-port="2" to-layer="1908" to-port="1" />
		<edge from-layer="1908" from-port="2" to-layer="1910" to-port="1" />
		<edge from-layer="1909" from-port="0" to-layer="1910" to-port="2" />
		<edge from-layer="1910" from-port="3" to-layer="1912" to-port="0" />
		<edge from-layer="1911" from-port="0" to-layer="1912" to-port="1" />
		<edge from-layer="1912" from-port="2" to-layer="1917" to-port="0" />
		<edge from-layer="1913" from-port="0" to-layer="1915" to-port="1" />
		<edge from-layer="1914" from-port="0" to-layer="1915" to-port="2" />
		<edge from-layer="1915" from-port="3" to-layer="1916" to-port="1" />
		<edge from-layer="1916" from-port="2" to-layer="1917" to-port="1" />
		<edge from-layer="1917" from-port="2" to-layer="2014" to-port="0" />
		<edge from-layer="1918" from-port="1" to-layer="1930" to-port="0" />
		<edge from-layer="1918" from-port="1" to-layer="1922" to-port="0" />
		<edge from-layer="1918" from-port="1" to-layer="1939" to-port="0" />
		<edge from-layer="1919" from-port="0" to-layer="1922" to-port="1" />
		<edge from-layer="1920" from-port="0" to-layer="1922" to-port="2" />
		<edge from-layer="1921" from-port="0" to-layer="1922" to-port="3" />
		<edge from-layer="1922" from-port="4" to-layer="1924" to-port="0" />
		<edge from-layer="1923" from-port="0" to-layer="1924" to-port="1" />
		<edge from-layer="1924" from-port="2" to-layer="1926" to-port="0" />
		<edge from-layer="1925" from-port="0" to-layer="1926" to-port="1" />
		<edge from-layer="1926" from-port="2" to-layer="1927" to-port="1" />
		<edge from-layer="1927" from-port="2" to-layer="1934" to-port="0" />
		<edge from-layer="1928" from-port="0" to-layer="1930" to-port="1" />
		<edge from-layer="1929" from-port="0" to-layer="1930" to-port="2" />
		<edge from-layer="1930" from-port="3" to-layer="1931" to-port="1" />
		<edge from-layer="1931" from-port="2" to-layer="1932" to-port="1" />
		<edge from-layer="1932" from-port="2" to-layer="1934" to-port="1" />
		<edge from-layer="1933" from-port="0" to-layer="1934" to-port="2" />
		<edge from-layer="1934" from-port="3" to-layer="1936" to-port="0" />
		<edge from-layer="1935" from-port="0" to-layer="1936" to-port="1" />
		<edge from-layer="1936" from-port="2" to-layer="1941" to-port="0" />
		<edge from-layer="1937" from-port="0" to-layer="1939" to-port="1" />
		<edge from-layer="1938" from-port="0" to-layer="1939" to-port="2" />
		<edge from-layer="1939" from-port="3" to-layer="1940" to-port="1" />
		<edge from-layer="1940" from-port="2" to-layer="1941" to-port="1" />
		<edge from-layer="1941" from-port="2" to-layer="2014" to-port="1" />
		<edge from-layer="1942" from-port="1" to-layer="1963" to-port="0" />
		<edge from-layer="1942" from-port="1" to-layer="1946" to-port="0" />
		<edge from-layer="1942" from-port="1" to-layer="1954" to-port="0" />
		<edge from-layer="1943" from-port="0" to-layer="1946" to-port="1" />
		<edge from-layer="1944" from-port="0" to-layer="1946" to-port="2" />
		<edge from-layer="1945" from-port="0" to-layer="1946" to-port="3" />
		<edge from-layer="1946" from-port="4" to-layer="1948" to-port="0" />
		<edge from-layer="1947" from-port="0" to-layer="1948" to-port="1" />
		<edge from-layer="1948" from-port="2" to-layer="1950" to-port="0" />
		<edge from-layer="1949" from-port="0" to-layer="1950" to-port="1" />
		<edge from-layer="1950" from-port="2" to-layer="1951" to-port="1" />
		<edge from-layer="1951" from-port="2" to-layer="1958" to-port="0" />
		<edge from-layer="1952" from-port="0" to-layer="1954" to-port="1" />
		<edge from-layer="1953" from-port="0" to-layer="1954" to-port="2" />
		<edge from-layer="1954" from-port="3" to-layer="1955" to-port="1" />
		<edge from-layer="1955" from-port="2" to-layer="1956" to-port="1" />
		<edge from-layer="1956" from-port="2" to-layer="1958" to-port="1" />
		<edge from-layer="1957" from-port="0" to-layer="1958" to-port="2" />
		<edge from-layer="1958" from-port="3" to-layer="1960" to-port="0" />
		<edge from-layer="1959" from-port="0" to-layer="1960" to-port="1" />
		<edge from-layer="1960" from-port="2" to-layer="1965" to-port="0" />
		<edge from-layer="1961" from-port="0" to-layer="1963" to-port="1" />
		<edge from-layer="1962" from-port="0" to-layer="1963" to-port="2" />
		<edge from-layer="1963" from-port="3" to-layer="1964" to-port="1" />
		<edge from-layer="1964" from-port="2" to-layer="1965" to-port="1" />
		<edge from-layer="1965" from-port="2" to-layer="2014" to-port="2" />
		<edge from-layer="1966" from-port="1" to-layer="1978" to-port="0" />
		<edge from-layer="1966" from-port="1" to-layer="1970" to-port="0" />
		<edge from-layer="1966" from-port="1" to-layer="1987" to-port="0" />
		<edge from-layer="1967" from-port="0" to-layer="1970" to-port="1" />
		<edge from-layer="1968" from-port="0" to-layer="1970" to-port="2" />
		<edge from-layer="1969" from-port="0" to-layer="1970" to-port="3" />
		<edge from-layer="1970" from-port="4" to-layer="1972" to-port="0" />
		<edge from-layer="1971" from-port="0" to-layer="1972" to-port="1" />
		<edge from-layer="1972" from-port="2" to-layer="1974" to-port="0" />
		<edge from-layer="1973" from-port="0" to-layer="1974" to-port="1" />
		<edge from-layer="1974" from-port="2" to-layer="1975" to-port="1" />
		<edge from-layer="1975" from-port="2" to-layer="1982" to-port="0" />
		<edge from-layer="1976" from-port="0" to-layer="1978" to-port="1" />
		<edge from-layer="1977" from-port="0" to-layer="1978" to-port="2" />
		<edge from-layer="1978" from-port="3" to-layer="1979" to-port="1" />
		<edge from-layer="1979" from-port="2" to-layer="1980" to-port="1" />
		<edge from-layer="1980" from-port="2" to-layer="1982" to-port="1" />
		<edge from-layer="1981" from-port="0" to-layer="1982" to-port="2" />
		<edge from-layer="1982" from-port="3" to-layer="1984" to-port="0" />
		<edge from-layer="1983" from-port="0" to-layer="1984" to-port="1" />
		<edge from-layer="1984" from-port="2" to-layer="1989" to-port="0" />
		<edge from-layer="1985" from-port="0" to-layer="1987" to-port="1" />
		<edge from-layer="1986" from-port="0" to-layer="1987" to-port="2" />
		<edge from-layer="1987" from-port="3" to-layer="1988" to-port="1" />
		<edge from-layer="1988" from-port="2" to-layer="1989" to-port="1" />
		<edge from-layer="1989" from-port="2" to-layer="2014" to-port="3" />
		<edge from-layer="1990" from-port="1" to-layer="2002" to-port="0" />
		<edge from-layer="1990" from-port="1" to-layer="1994" to-port="0" />
		<edge from-layer="1990" from-port="1" to-layer="2011" to-port="0" />
		<edge from-layer="1991" from-port="0" to-layer="1994" to-port="1" />
		<edge from-layer="1992" from-port="0" to-layer="1994" to-port="2" />
		<edge from-layer="1993" from-port="0" to-layer="1994" to-port="3" />
		<edge from-layer="1994" from-port="4" to-layer="1996" to-port="0" />
		<edge from-layer="1995" from-port="0" to-layer="1996" to-port="1" />
		<edge from-layer="1996" from-port="2" to-layer="1998" to-port="0" />
		<edge from-layer="1997" from-port="0" to-layer="1998" to-port="1" />
		<edge from-layer="1998" from-port="2" to-layer="1999" to-port="1" />
		<edge from-layer="1999" from-port="2" to-layer="2006" to-port="0" />
		<edge from-layer="2000" from-port="0" to-layer="2002" to-port="1" />
		<edge from-layer="2001" from-port="0" to-layer="2002" to-port="2" />
		<edge from-layer="2002" from-port="3" to-layer="2003" to-port="1" />
		<edge from-layer="2003" from-port="2" to-layer="2004" to-port="1" />
		<edge from-layer="2004" from-port="2" to-layer="2006" to-port="1" />
		<edge from-layer="2005" from-port="0" to-layer="2006" to-port="2" />
		<edge from-layer="2006" from-port="3" to-layer="2008" to-port="0" />
		<edge from-layer="2007" from-port="0" to-layer="2008" to-port="1" />
		<edge from-layer="2008" from-port="2" to-layer="2013" to-port="0" />
		<edge from-layer="2009" from-port="0" to-layer="2011" to-port="1" />
		<edge from-layer="2010" from-port="0" to-layer="2011" to-port="2" />
		<edge from-layer="2011" from-port="3" to-layer="2012" to-port="1" />
		<edge from-layer="2012" from-port="2" to-layer="2013" to-port="1" />
		<edge from-layer="2013" from-port="2" to-layer="2014" to-port="4" />
		<edge from-layer="2014" from-port="5" to-layer="2015" to-port="1" />
		<edge from-layer="2015" from-port="2" to-layer="2058" to-port="0" />
		<edge from-layer="2015" from-port="2" to-layer="2017" to-port="0" />
		<edge from-layer="2015" from-port="2" to-layer="2042" to-port="0" />
		<edge from-layer="2016" from-port="0" to-layer="2017" to-port="1" />
		<edge from-layer="2017" from-port="2" to-layer="2030" to-port="0" />
		<edge from-layer="2017" from-port="2" to-layer="2019" to-port="0" />
		<edge from-layer="2018" from-port="0" to-layer="2023" to-port="0" />
		<edge from-layer="2019" from-port="1" to-layer="2055" to-port="0" />
		<edge from-layer="2019" from-port="1" to-layer="2022" to-port="0" />
		<edge from-layer="2020" from-port="0" to-layer="2022" to-port="1" />
		<edge from-layer="2021" from-port="0" to-layer="2022" to-port="2" />
		<edge from-layer="2022" from-port="3" to-layer="2025" to-port="2" />
		<edge from-layer="2022" from-port="3" to-layer="2023" to-port="1" />
		<edge from-layer="2023" from-port="2" to-layer="2025" to-port="0" />
		<edge from-layer="2024" from-port="0" to-layer="2025" to-port="1" />
		<edge from-layer="2025" from-port="3" to-layer="2027" to-port="0" />
		<edge from-layer="2026" from-port="0" to-layer="2027" to-port="1" />
		<edge from-layer="2027" from-port="2" to-layer="2029" to-port="0" />
		<edge from-layer="2028" from-port="0" to-layer="2029" to-port="1" />
		<edge from-layer="2029" from-port="2" to-layer="2030" to-port="1" />
		<edge from-layer="2030" from-port="3" to-layer="2037" to-port="0" />
		<edge from-layer="2030" from-port="3" to-layer="2047" to-port="0" />
		<edge from-layer="2031" from-port="0" to-layer="2032" to-port="1" />
		<edge from-layer="2032" from-port="2" to-layer="2195" to-port="0" />
		<edge from-layer="2032" from-port="2" to-layer="2175" to-port="0" />
		<edge from-layer="2032" from-port="2" to-layer="2046" to-port="0" />
		<edge from-layer="2032" from-port="2" to-layer="2036" to-port="0" />
		<edge from-layer="2033" from-port="0" to-layer="2035" to-port="1" />
		<edge from-layer="2034" from-port="0" to-layer="2035" to-port="2" />
		<edge from-layer="2035" from-port="3" to-layer="2036" to-port="1" />
		<edge from-layer="2036" from-port="2" to-layer="2037" to-port="1" />
		<edge from-layer="2037" from-port="2" to-layer="2039" to-port="1" />
		<edge from-layer="2038" from-port="0" to-layer="2039" to-port="2" />
		<edge from-layer="2039" from-port="3" to-layer="2041" to-port="0" />
		<edge from-layer="2040" from-port="0" to-layer="2041" to-port="1" />
		<edge from-layer="2041" from-port="2" to-layer="2053" to-port="0" />
		<edge from-layer="2042" from-port="1" to-layer="2045" to-port="0" />
		<edge from-layer="2042" from-port="1" to-layer="2051" to-port="0" />
		<edge from-layer="2043" from-port="0" to-layer="2045" to-port="1" />
		<edge from-layer="2044" from-port="0" to-layer="2045" to-port="2" />
		<edge from-layer="2045" from-port="3" to-layer="2046" to-port="1" />
		<edge from-layer="2046" from-port="2" to-layer="2047" to-port="1" />
		<edge from-layer="2047" from-port="2" to-layer="2060" to-port="1" />
		<edge from-layer="2047" from-port="2" to-layer="2048" to-port="0" />
		<edge from-layer="2048" from-port="1" to-layer="2052" to-port="0" />
		<edge from-layer="2048" from-port="1" to-layer="2100" to-port="0" />
		<edge from-layer="2049" from-port="0" to-layer="2051" to-port="1" />
		<edge from-layer="2050" from-port="0" to-layer="2051" to-port="2" />
		<edge from-layer="2051" from-port="3" to-layer="2052" to-port="1" />
		<edge from-layer="2052" from-port="2" to-layer="2109" to-port="0" />
		<edge from-layer="2052" from-port="2" to-layer="2063" to-port="1" />
		<edge from-layer="2052" from-port="2" to-layer="2053" to-port="1" />
		<edge from-layer="2053" from-port="2" to-layer="2103" to-port="0" />
		<edge from-layer="2053" from-port="2" to-layer="2071" to-port="0" />
		<edge from-layer="2054" from-port="0" to-layer="2055" to-port="1" />
		<edge from-layer="2055" from-port="2" to-layer="2057" to-port="0" />
		<edge from-layer="2056" from-port="0" to-layer="2057" to-port="1" />
		<edge from-layer="2057" from-port="2" to-layer="2058" to-port="1" />
		<edge from-layer="2058" from-port="2" to-layer="2060" to-port="0" />
		<edge from-layer="2059" from-port="0" to-layer="2060" to-port="2" />
		<edge from-layer="2060" from-port="3" to-layer="2062" to-port="0" />
		<edge from-layer="2061" from-port="0" to-layer="2062" to-port="1" />
		<edge from-layer="2062" from-port="2" to-layer="2063" to-port="0" />
		<edge from-layer="2063" from-port="2" to-layer="2065" to-port="0" />
		<edge from-layer="2064" from-port="0" to-layer="2065" to-port="1" />
		<edge from-layer="2065" from-port="2" to-layer="2121" to-port="0" />
		<edge from-layer="2065" from-port="2" to-layer="2116" to-port="0" />
		<edge from-layer="2065" from-port="2" to-layer="2071" to-port="1" />
		<edge from-layer="2066" from-port="0" to-layer="2071" to-port="2" />
		<edge from-layer="2067" from-port="0" to-layer="2068" to-port="0" />
		<edge from-layer="2068" from-port="1" to-layer="2071" to-port="3" />
		<edge from-layer="2069" from-port="0" to-layer="2070" to-port="0" />
		<edge from-layer="2070" from-port="1" to-layer="2071" to-port="4" />
		<edge from-layer="2071" from-port="5" to-layer="2078" to-port="0" />
		<edge from-layer="2071" from-port="5" to-layer="2073" to-port="0" />
		<edge from-layer="2071" from-port="5" to-layer="2106" to-port="0" />
		<edge from-layer="2072" from-port="0" to-layer="2073" to-port="2" />
		<edge from-layer="2073" from-port="3" to-layer="2110" to-port="0" />
		<edge from-layer="2073" from-port="3" to-layer="2131" to-port="0" />
		<edge from-layer="2073" from-port="3" to-layer="2076" to-port="0" />
		<edge from-layer="2074" from-port="0" to-layer="2075" to-port="1" />
		<edge from-layer="2075" from-port="2" to-layer="2076" to-port="1" />
		<edge from-layer="2076" from-port="2" to-layer="2087" to-port="0" />
		<edge from-layer="2076" from-port="2" to-layer="2098" to-port="0" />
		<edge from-layer="2077" from-port="0" to-layer="2078" to-port="2" />
		<edge from-layer="2078" from-port="3" to-layer="2125" to-port="0" />
		<edge from-layer="2078" from-port="3" to-layer="2080" to-port="0" />
		<edge from-layer="2079" from-port="0" to-layer="2080" to-port="1" />
		<edge from-layer="2080" from-port="2" to-layer="2085" to-port="0" />
		<edge from-layer="2081" from-port="0" to-layer="2082" to-port="1" />
		<edge from-layer="2082" from-port="2" to-layer="2084" to-port="0" />
		<edge from-layer="2082" from-port="2" to-layer="2144" to-port="0" />
		<edge from-layer="2082" from-port="2" to-layer="2153" to-port="0" />
		<edge from-layer="2083" from-port="0" to-layer="2084" to-port="1" />
		<edge from-layer="2084" from-port="2" to-layer="2089" to-port="1" />
		<edge from-layer="2084" from-port="2" to-layer="2085" to-port="1" />
		<edge from-layer="2085" from-port="2" to-layer="2087" to-port="1" />
		<edge from-layer="2086" from-port="0" to-layer="2087" to-port="2" />
		<edge from-layer="2087" from-port="3" to-layer="2090" to-port="0" />
		<edge from-layer="2088" from-port="0" to-layer="2089" to-port="0" />
		<edge from-layer="2089" from-port="2" to-layer="2090" to-port="1" />
		<edge from-layer="2090" from-port="2" to-layer="2091" to-port="0" />
		<edge from-layer="2090" from-port="2" to-layer="2096" to-port="0" />
		<edge from-layer="2091" from-port="1" to-layer="2093" to-port="0" />
		<edge from-layer="2091" from-port="1" to-layer="2174" to-port="0" />
		<edge from-layer="2092" from-port="0" to-layer="2093" to-port="1" />
		<edge from-layer="2093" from-port="2" to-layer="2095" to-port="0" />
		<edge from-layer="2094" from-port="0" to-layer="2095" to-port="1" />
		<edge from-layer="2095" from-port="2" to-layer="2096" to-port="1" />
		<edge from-layer="2096" from-port="2" to-layer="2178" to-port="0" />
		<edge from-layer="2097" from-port="0" to-layer="2098" to-port="1" />
		<edge from-layer="2098" from-port="2" to-layer="2148" to-port="0" />
		<edge from-layer="2099" from-port="0" to-layer="2100" to-port="1" />
		<edge from-layer="2100" from-port="2" to-layer="2102" to-port="0" />
		<edge from-layer="2101" from-port="0" to-layer="2102" to-port="1" />
		<edge from-layer="2102" from-port="2" to-layer="2103" to-port="1" />
		<edge from-layer="2103" from-port="2" to-layer="2113" to-port="0" />
		<edge from-layer="2104" from-port="0" to-layer="2106" to-port="1" />
		<edge from-layer="2105" from-port="0" to-layer="2106" to-port="2" />
		<edge from-layer="2106" from-port="3" to-layer="2111" to-port="0" />
		<edge from-layer="2106" from-port="3" to-layer="2126" to-port="0" />
		<edge from-layer="2107" from-port="0" to-layer="2109" to-port="1" />
		<edge from-layer="2108" from-port="0" to-layer="2109" to-port="2" />
		<edge from-layer="2109" from-port="3" to-layer="2110" to-port="1" />
		<edge from-layer="2110" from-port="2" to-layer="2111" to-port="1" />
		<edge from-layer="2111" from-port="2" to-layer="2113" to-port="1" />
		<edge from-layer="2112" from-port="0" to-layer="2113" to-port="2" />
		<edge from-layer="2113" from-port="3" to-layer="2115" to-port="0" />
		<edge from-layer="2114" from-port="0" to-layer="2115" to-port="1" />
		<edge from-layer="2115" from-port="2" to-layer="2139" to-port="0" />
		<edge from-layer="2116" from-port="1" to-layer="2124" to-port="0" />
		<edge from-layer="2116" from-port="1" to-layer="2129" to-port="0" />
		<edge from-layer="2116" from-port="1" to-layer="2118" to-port="0" />
		<edge from-layer="2117" from-port="0" to-layer="2118" to-port="1" />
		<edge from-layer="2118" from-port="2" to-layer="2120" to-port="0" />
		<edge from-layer="2119" from-port="0" to-layer="2120" to-port="1" />
		<edge from-layer="2120" from-port="2" to-layer="2121" to-port="1" />
		<edge from-layer="2121" from-port="2" to-layer="2134" to-port="0" />
		<edge from-layer="2122" from-port="0" to-layer="2124" to-port="1" />
		<edge from-layer="2123" from-port="0" to-layer="2124" to-port="2" />
		<edge from-layer="2124" from-port="3" to-layer="2125" to-port="1" />
		<edge from-layer="2124" from-port="3" to-layer="2130" to-port="0" />
		<edge from-layer="2125" from-port="2" to-layer="2126" to-port="1" />
		<edge from-layer="2126" from-port="2" to-layer="2132" to-port="0" />
		<edge from-layer="2127" from-port="0" to-layer="2129" to-port="1" />
		<edge from-layer="2128" from-port="0" to-layer="2129" to-port="2" />
		<edge from-layer="2129" from-port="3" to-layer="2130" to-port="1" />
		<edge from-layer="2130" from-port="2" to-layer="2131" to-port="1" />
		<edge from-layer="2131" from-port="2" to-layer="2132" to-port="1" />
		<edge from-layer="2132" from-port="2" to-layer="2134" to-port="1" />
		<edge from-layer="2133" from-port="0" to-layer="2134" to-port="2" />
		<edge from-layer="2134" from-port="3" to-layer="2136" to-port="0" />
		<edge from-layer="2135" from-port="0" to-layer="2136" to-port="1" />
		<edge from-layer="2136" from-port="2" to-layer="2138" to-port="0" />
		<edge from-layer="2137" from-port="0" to-layer="2138" to-port="1" />
		<edge from-layer="2138" from-port="2" to-layer="2139" to-port="1" />
		<edge from-layer="2139" from-port="2" to-layer="2141" to-port="0" />
		<edge from-layer="2140" from-port="0" to-layer="2141" to-port="1" />
		<edge from-layer="2141" from-port="2" to-layer="2145" to-port="0" />
		<edge from-layer="2142" from-port="0" to-layer="2144" to-port="1" />
		<edge from-layer="2143" from-port="0" to-layer="2144" to-port="2" />
		<edge from-layer="2144" from-port="3" to-layer="2145" to-port="1" />
		<edge from-layer="2145" from-port="2" to-layer="2148" to-port="1" />
		<edge from-layer="2146" from-port="0" to-layer="2147" to-port="0" />
		<edge from-layer="2147" from-port="1" to-layer="2148" to-port="2" />
		<edge from-layer="2148" from-port="3" to-layer="2155" to-port="0" />
		<edge from-layer="2149" from-port="0" to-layer="2150" to-port="0" />
		<edge from-layer="2150" from-port="1" to-layer="2154" to-port="0" />
		<edge from-layer="2151" from-port="0" to-layer="2153" to-port="1" />
		<edge from-layer="2152" from-port="0" to-layer="2153" to-port="2" />
		<edge from-layer="2153" from-port="3" to-layer="2154" to-port="1" />
		<edge from-layer="2154" from-port="2" to-layer="2155" to-port="1" />
		<edge from-layer="2155" from-port="2" to-layer="2160" to-port="0" />
		<edge from-layer="2155" from-port="2" to-layer="2191" to-port="0" />
		<edge from-layer="2155" from-port="2" to-layer="2158" to-port="0" />
		<edge from-layer="2156" from-port="0" to-layer="2158" to-port="1" />
		<edge from-layer="2157" from-port="0" to-layer="2158" to-port="2" />
		<edge from-layer="2158" from-port="3" to-layer="2171" to-port="0" />
		<edge from-layer="2159" from-port="0" to-layer="2164" to-port="0" />
		<edge from-layer="2160" from-port="1" to-layer="2163" to-port="0" />
		<edge from-layer="2160" from-port="1" to-layer="2203" to-port="0" />
		<edge from-layer="2160" from-port="1" to-layer="2194" to-port="0" />
		<edge from-layer="2160" from-port="1" to-layer="2186" to-port="0" />
		<edge from-layer="2161" from-port="0" to-layer="2163" to-port="1" />
		<edge from-layer="2162" from-port="0" to-layer="2163" to-port="2" />
		<edge from-layer="2163" from-port="3" to-layer="2164" to-port="1" />
		<edge from-layer="2163" from-port="3" to-layer="2166" to-port="2" />
		<edge from-layer="2164" from-port="2" to-layer="2166" to-port="0" />
		<edge from-layer="2165" from-port="0" to-layer="2166" to-port="1" />
		<edge from-layer="2166" from-port="3" to-layer="2168" to-port="0" />
		<edge from-layer="2167" from-port="0" to-layer="2168" to-port="1" />
		<edge from-layer="2168" from-port="2" to-layer="2170" to-port="0" />
		<edge from-layer="2169" from-port="0" to-layer="2170" to-port="1" />
		<edge from-layer="2170" from-port="2" to-layer="2171" to-port="1" />
		<edge from-layer="2171" from-port="3" to-layer="2196" to-port="0" />
		<edge from-layer="2171" from-port="3" to-layer="2176" to-port="0" />
		<edge from-layer="2172" from-port="0" to-layer="2174" to-port="1" />
		<edge from-layer="2173" from-port="0" to-layer="2174" to-port="2" />
		<edge from-layer="2174" from-port="3" to-layer="2175" to-port="1" />
		<edge from-layer="2175" from-port="2" to-layer="2176" to-port="1" />
		<edge from-layer="2176" from-port="2" to-layer="2181" to-port="0" />
		<edge from-layer="2176" from-port="2" to-layer="2178" to-port="1" />
		<edge from-layer="2177" from-port="0" to-layer="2178" to-port="2" />
		<edge from-layer="2178" from-port="3" to-layer="2180" to-port="0" />
		<edge from-layer="2179" from-port="0" to-layer="2180" to-port="1" />
		<edge from-layer="2180" from-port="2" to-layer="2182" to-port="0" />
		<edge from-layer="2181" from-port="1" to-layer="2182" to-port="1" />
		<edge from-layer="2181" from-port="1" to-layer="2204" to-port="0" />
		<edge from-layer="2182" from-port="2" to-layer="2183" to-port="0" />
		<edge from-layer="2184" from-port="0" to-layer="2186" to-port="1" />
		<edge from-layer="2185" from-port="0" to-layer="2186" to-port="2" />
		<edge from-layer="2186" from-port="3" to-layer="2188" to-port="0" />
		<edge from-layer="2187" from-port="0" to-layer="2188" to-port="1" />
		<edge from-layer="2188" from-port="2" to-layer="2190" to-port="0" />
		<edge from-layer="2189" from-port="0" to-layer="2190" to-port="1" />
		<edge from-layer="2190" from-port="2" to-layer="2191" to-port="1" />
		<edge from-layer="2191" from-port="2" to-layer="2198" to-port="0" />
		<edge from-layer="2192" from-port="0" to-layer="2194" to-port="1" />
		<edge from-layer="2193" from-port="0" to-layer="2194" to-port="2" />
		<edge from-layer="2194" from-port="3" to-layer="2195" to-port="1" />
		<edge from-layer="2195" from-port="2" to-layer="2196" to-port="1" />
		<edge from-layer="2196" from-port="2" to-layer="2198" to-port="1" />
		<edge from-layer="2197" from-port="0" to-layer="2198" to-port="2" />
		<edge from-layer="2198" from-port="3" to-layer="2200" to-port="0" />
		<edge from-layer="2199" from-port="0" to-layer="2200" to-port="1" />
		<edge from-layer="2200" from-port="2" to-layer="2205" to-port="0" />
		<edge from-layer="2201" from-port="0" to-layer="2203" to-port="1" />
		<edge from-layer="2202" from-port="0" to-layer="2203" to-port="2" />
		<edge from-layer="2203" from-port="3" to-layer="2204" to-port="1" />
		<edge from-layer="2204" from-port="2" to-layer="2205" to-port="1" />
		<edge from-layer="2205" from-port="2" to-layer="2206" to-port="0" />
	</edges>
	<rt_info>
		<Runtime_version value="2025.0.0-17942-1f68be9f594-releases/2025/0" />
		<conversion_parameters>
			<is_python_object value="False" />
		</conversion_parameters>
		<model_info>
			<confidence_threshold value="0.275" />
			<iou_threshold value="0.5" />
			<label_ids value="68c0d4e6eb2ad22e9e5fecd6 68c0d4e6eb2ad22e9e5fecd7 68c0d4e6eb2ad22e9e5fecd8 68c0d4e6eb2ad22e9e5fecd9" />
			<label_info value="{&quot;label_names&quot;: [&quot;forehead&quot;, &quot;cheek&quot;, &quot;lip&quot;, &quot;chin&quot;], &quot;label_ids&quot;: [&quot;68c0d4e6eb2ad22e9e5fecd6&quot;, &quot;68c0d4e6eb2ad22e9e5fecd7&quot;, &quot;68c0d4e6eb2ad22e9e5fecd8&quot;, &quot;68c0d4e6eb2ad22e9e5fecd9&quot;], &quot;label_groups&quot;: [[&quot;forehead&quot;, &quot;cheek&quot;, &quot;lip&quot;, &quot;chin&quot;]]}" />
			<labels value="forehead cheek lip chin" />
			<mean_values value="0.0 0.0 0.0" />
			<model_type value="ssd" />
			<optimization_config value="{}" />
			<otx_version value="2.4.2" />
			<pad_value value="0" />
			<resize_type value="standard" />
			<reverse_input_channels value="False" />
			<scale_values value="255.0 255.0 255.0" />
			<task_type value="detection" />
		</model_info>
	</rt_info>
</net>
